DKT/ckpts/dkt/ASSIST2009/model.ckpt (torch, 458862 bytes, 11 tensors)

_module.interaction_emb.weight f4 [220, 100]
00000000: 8b44 153f f3b2 62bf e2e7 86bf 8b24 79bf
00000010: b109 9ebe b445 0c40 d662 aabf 7577 ca3e
00000020: e9dd af3f 3230 c3be 080a 5cbf 6524 8e3f
00000030: 3be3 2abf 8a24 a23e 0994 b03f 19a5 873f
00000040: aaf3 d5bf 99c4 dd3f 8d2a e93e a04a 0c3f
00000050: 9f02 d33f dd82 9ebf bbd6 af3e 6068 adbf
00000060: e390 083f 72f5 7e3f 47b6 b33f 96f3 483f
00000070: 76ef 8abc d83b a4bb 5bf5 3e3f fa6c 43be
00000080: 82df 093d a58b b33e ed38 9dbf 0525 2dbf
00000090: fea2 94be a3bc f4be c473 743f c8da 153f
000000a0: 298a 513f c43f 283e 39e6 fb3f 479b 35bf
000000b0: e3e8 cf3f 1290 cfbf 1630 ca3f 03ea b9bf
000000c0: dd33 7b3f 926a 8cbf 82cd 3c3c 8662 a1bf
000000d0: 85f8 3440 3cd2 bc3e 58bc 98bf 7c40 813f
000000e0: 38d8 213e f500 d93f 134d 093f 5be5 3f3f
000000f0: 2aef 753f 7afb ad3e b9e1 663d 6acb ea3f
00000100: 1c10 473f 0564 babf ffb6 993f c1c6 0fbe
00000110: c5d7 373f 1172 23bd 20fb 4ebf 0f57 8e3e
00000120: 9c07 3040 5b96 a13f 106f 063f cc3b c43f
00000130: 43a9 b23f 799d 2a3f 696c c3be 448d d1bf
00000140: 0601 d93e a886 46be d2bc 203f 4cad dcbf
00000150: 00ed 413e 2a46 3d3e dcca 39bf a556 bcbe
00000160: d37c 7dbe 5c09 6d3f 45c4 0d3f acb5 9cbe
00000170: 9ab6 0bbf f85e 43bf 953b 4fbf 29e5 093f
00000180: fe23 e73f 8460 de3e 7d46 933e c1b3 cebf
00000190: 4743 c6bf c2a0 83bf 43fb b3bf b4e6 283f
000001a0: 7bc7 e53d 1140 213f 34a2 033f 76d2 1abf
000001b0: 1f3c 243f 2948 dd3e 99cb 483f 45e5 98bd
000001c0: 0c2b 83be 7d87 9a3d 40d2 6ebe fa9a 01c0
000001d0: ea14 a1be da9d 433e 48f4 3cbd 3232 f8be
000001e0: 984b 253f d5d8 43bf a251 5cbf c38b b2bf
000001f0: b659 6f3f b75f ddbf 10b8 6f3e 3249 563f
00000200: 4e46 2d3f 8395 bf3f fe77 c7bd 6526 76bf
00000210: f1bc b6bf cfdc 273f 5ce1 c53f 35cf e6bd
00000220: 53f7 ea3f 1997 3c3f 1098 60bf 96d1 1d3e
00000230: 1cb9 2e3f 1356 6b3e 40f0 123f 09ed bd3f
00000240: d0d4 55bf 8203 a23f 5088 853c 3c88 d0bc
00000250: 3b96 f23f 568f 82bd 8814 78bf 9b88 903f
00000260: 23a4 3fbf 97df bebe 5623 b63f ffff 2abf
00000270: e321 cbbf 58b0 6fbe 7f8a ac3f 4b61 213f
00000280: bb89 d8bd b642 38bf 4b7f 7a3f 3a6a d33e
00000290: 75c8 16bf c6a0 fa3e cabf 083f e625 81bf
000002a0: 5597 253f 97f9 7bbf 789a 8bbe 5671 08c0
000002b0: 9b13 383e 7a8f 273f b168 3ebe 18e5 d8bf
000002c0: 246d 82bf 0924 79bc af18 69be 95d2 64bf
000002d0: 5693 fbbe 8e7f 913f 02ed db3c 3a2b 1f3f
000002e0: 312d 063f 587e 9c3f bf13 943f 1696 4e3e
000002f0: beda cf3f e489 69bf c202 053e 15ac 683d
00000300: f476 c4be 90ef c4bf 69b7 ecbe 4311 8cbe
00000310: d431 dbbe 6ac0 0dbf f26e 3ec0 ec29 d13f
00000320: 663e d8be 7f0b 9bbf 3d43 a9bf 8be4 febf
00000330: 87e1 6abf b70d db3f f3ac ad3d b108 89bf
00000340: c113 9cbe c76e 59bf c0f5 a4be d019 d0bf
00000350: 02f4 5fbf 707d 823f 06d0 9c3e eb44 b73c
00000360: ad2b ecbe 12e0 1cbf a4de 233f b407 b0bf
00000370: 66d3 92bf a6ab 20be 1a07 0240 5e7c 2abf
00000380: 626f 8d3e 9494 2b40 6168 83bf 7c09 25bf
00000390: 4f7b 573e a9eb b03e 2451 10bf 211b d9bc
000003a0: 1ac0 2d3f 1f04 e7be 9273 a2bd c6d4 e73e
000003b0: a4ae 8c3f 6ef3 8cbf 6679 a93f 8618 60be
000003c0: 136e 883d c4b5 21be 67f6 ecbe 8ecf 31bf
000003d0: 1191 a13f 75fa 9b3e 94f2 ac3f 9a21 aabf
000003e0: d58a 5f3f f69e 863f 5c3f 43bf 31ce 723d
000003f0: 2ab3 e93e 4c2a 423f 36fd 1abf 8d6f 18be
0.58307713 -0.88554305 -1.0539515 -0.97321385 -0.3086677 2.1917543 -1.3311412 0.39544263
1.3739597 -0.38122708 -0.85952806 1.1104857 -0.66752976 0.31668502 1.3795177 1.0597259
-1.6714985 1.7325622 0.45540276 0.5480137 1.6485175 -1.2383686 0.34343514 -1.3547478
0.5334608 0.9959327 1.4040002 0.7849668 -0.016959887 -0.0050120167 0.7459313 -0.1908454
0.03366042 0.35067478 -1.2282997 -0.6763461 -0.29030603 -0.47800168 0.95489144 0.5853696
0.8185144 0.16430575 1.9679633 -0.7094006 1.6242946 -1.6215842 1.5795925 -1.452454
0.9812601 -1.0970023 0.011523606 -1.2608192 2.8276684 0.36879146 -1.1932478 1.0097804
0.15805137 1.6953417 0.5363323 0.74959344 0.9606806 0.33980924 0.05636761 1.8343327
0.77758956 -1.4561774 1.2008971 -0.14040662 0.71813613 -0.039903704 -0.80851936 0.27800795
2.7504644 1.262401 0.5251322 1.5330749 1.3957905 0.66646534 -0.38168648 -1.6371236
0.42383593 -0.19387305 0.62788117 -1.7240386 0.18938065 0.18483797 -0.72575164 -0.36784855
-0.24754648 0.92592406 0.5537761 -0.30607355 -0.545755 -0.76316786 -0.8095029 0.53865296
1.8057859 0.4343301 0.28764716 -1.6148607 -1.5489281 -1.0283434 -1.4061054 0.65977025
0.112196885 0.6298838 0.5141938 -0.6047739 0.6415424 0.43219116 0.78435665 -0.07465605
-0.2561878 0.075453736 -0.23322392 -2.025084 -0.3146127 0.19103184 -0.046131402 -0.48475796
0.6456847 -0.76502734 -0.8606206 -1.3948902 0.93496263 -1.7294835 0.23410058 0.8370544
0.676854 1.4967502 -0.097396836 -0.96152335 -1.427641 0.655713 1.5459399 -0.1126999
1.8356727 0.73668057 -0.8773203 0.15411982 0.68251204 0.22982053 0.5739784 1.4837962
-0.8352785 1.265732 0.01630035 -0.025455587 1.8952097 -0.063749954 -0.9690633 1.1291689
-0.7485983 -0.3727996 1.4229534 -0.6679687 -1.5869716 -0.23407114 1.3479766 0.6303908
-0.10573145 -0.7197679 0.97850484 0.41291982 -0.58899623 0.48950785 0.53417647 -1.0089691
0.6468404 -0.9842772 -0.27266288 -2.1319175 0.17976229 0.654533 -0.18594624 -1.6944914
-1.0189557 -0.015206345 -0.22763322 -0.8938382 -0.49135846 1.1367052 0.026846413 0.62175333
0.52412707 1.2226057 1.1568526 0.2017444 1.623863 -0.9122603 0.12989333 0.056804735
-0.38372004 -1.5385609 -0.4623368 -0.2735692 -0.42811453 -0.55371726 -2.9755216 1.6340919
-0.42235106 -1.2112883 -1.3223644 -1.9913496 -0.9175038 1.711356 0.08480253 -1.0705777
-0.3048382 -0.8493466 -0.32218742 -1.6257877 -0.874817 1.019453 0.3062746 0.02237173
-0.46127072 -0.61279404 0.640116 -1.3752351 -1.1470764 -0.15690479 2.0316834 -0.6659602
0.2762404 2.6809435 -1.0266229 -0.64467597 0.21043132 0.34554794 -0.5637381 -0.026502194
0.6787125 -0.45120332 -0.079321995 0.4527952 1.0990796 -1.1011789 1.3240173 -0.21884355
0.0666162 -0.15791994 -0.4628174 -0.6945733 1.2622396 0.3046452 1.3511529 -1.3291504
0.87321216 1.0517261 -0.76268554 0.05927867 0.45644504 0.7584579 -0.6054262 -0.14886303

_module.lstm_layer.weight_ih_l0 f4 [400, 100]
00000000: 600f a53c f9a0 c73d 78b1 033e 0711 403e
00000010: da92 c93d 5a76 19bb acf9 85bd 338c 343c
00000020: c2d6 24be 8824 1a3e 158d dd3d 8f03 03be
00000030: 424c 1a3e 9069 7dbe f8e6 b2bd e692 a5bd
00000040: 7e78 04be cc18 823d 88d4 c4bc 8deb 533c
00000050: 8f7f 0f3e f4f5 123e 98d4 45be 13bc ccbd
00000060: 7906 08be c59f 3f3d be93 18bc a540 833d
00000070: 04cc 7b3d 9243 a9bd fedd 2a3d 09b9 cabd
00000080: 4847 3b3e c7c3 23bc 6ebd db3d 7334 1b3e
00000090: 8595 423d 1418 083d a0a1 193d 2e45 42be
000000a0: 911c 82be a151 20be a5c7 8cbd 7531 acba
000000b0: 1955 033d 576d 1bbe f78f 39be 17af bcbc
000000c0: 1486 593d 1c42 dfbd ff20 053d 68ad bdbd
000000d0: 704c 72bd 069c 01be a21f fcbd 1bd3 f3bd
000000e0: 0cd8 88bd 6348 333e 7153 54be 3fd2 30be
000000f0: 59dc dbbd 6615 f23d 6466 043e d493 803e
00000100: bacc adbd ab5b c6bc 129b 50be 9551 b0bd
00000110: 8bfc 393b f309 373e c327 93bd f7d3 f83d
00000120: 12e4 473e 98cc 52be c7a1 b1bc 8492 15bd
00000130: dbd4 63be e438 0bbe 5b3f 81bd c86d 663d
00000140: d354 083c ec36 35bc 1c11 59be b513 eb3c
00000150: 8c28 bebd ad04 04be 25bc cd3d ed94 633e
00000160: c305 22be 00d6 f13d 2b67 f0bd 6cf3 0cbd
00000170: 32ca 723e 2e9f 2a3d 1b40 713d e599 86bd
00000180: 9012 fcbc 3042 493e deb5 783e 334b f63c
00000190: c2c2 6bbe 3e20 f7bc 2dcf b13c b07b 92bd
000001a0: 01b8 a3bc 88a1 d4bd 3499 4f3e 97f4 063e
000001b0: ad3f 603e 1850 96bd 0675 49be 3896 193e
000001c0: 2a51 49be 73dc ca3d c39c 6dbd f1f5 a33d
000001d0: cf61 9abd 9733 0ebe a5fd 05be d253 01be
000001e0: b170 74be 852b 193e 9427 ffba 4f02 f0bd
000001f0: 1f47 9bbe 3ea3 833e 2cc8 ebbc b42e ee3d
00000200: a28a 70be cea9 793e 04db 013d b5d0 9438
00000210: ad16 0a3e b19d 233d 2b8e 873d 1abc 003d
00000220: 2f53 833e eabd 5abc ff9f c73d 9aa0 e23d
00000230: 5de1 0fbe f5c5 da3c 8752 953d 5d7b a33d
00000240: ba8a 94bd b70c 2fbe 8e5f 24bd fc99 eabd
00000250: 7f11 9b3d d2a2 a73a f8e5 a9bd 34d3 02be
00000260: aac4 833d 45eb e4bd f783 89bc 2e4b 303e
00000270: 4800 523d a9e0 a23d 178c 4dbe 3f02 393d
00000280: 08e4 6cbe 26a7 39bd 7bf7 63be f696 ef3c
00000290: 9846 f2bb ddac b0bd 348a 27be bbd2 163e
000002a0: a88f 4cbe b1ae 093e d155 29bd 5e90 b2bc
000002b0: e75a 3cbe 49fb 2b3d 8c1c dfbd 3a46 af3c
000002c0: 4c5d 11bd 6dd0 053e 3e6e 3e38 fe5d 183c
000002d0: 0f63 b3bd 9559 293d 381e b7bd d3a3 0ebd
000002e0: 9aac 4b3e 21c4 f13d 75bc 613e cba7 e8bd
000002f0: 9bd8 9ebd 59c8 8cbc 8553 e83d af2e 8dbb
00000300: de47 93bd 552d b3bc fb15 49be 021a 92be
00000310: bb91 12bd 7dd9 c6bc 1fa6 3dbd 20f7 3abd
00000320: b9aa 103d efca d5bd 1547 52be df76 b73c
00000330: fcd5 f53d e83a d23d c407 efbd 14bd 103e
00000340: 22ca 513b 9443 65bb 0b35 f5bd eed2 9dbd
00000350: 97af 103e b38d 4a3c 7ae7 aabd f6ca c73d
00000360: 86cb 673e 4095 a9bd 66f3 303d fff8 16be
00000370: 2efc 22be 735a cd3c ce54 543e ed1d 1cbd
00000380: a1ec f93d 0a53 063e 31c7 b9bd 3d8d 12be
00000390: 0614 9dbc 2d2f d4bd a8da a5bd a370 c33d
000003a0: 0d11 11bd 590c 1fbd dacb 61bd 2c4b 9ebe
000003b0: 5af9 9abc b0ea 22be ecf2 673d fba3 4e3c
000003c0: 90cc bdbd 146e ffbc 5bdc 17be 1a28 923d
000003d0: 4a33 393d 4e57 dabd ffb1 79bd 2ba3 07be
000003e0: b2ff 8ebe c5c9 d53c dae0 553d 70c3 693e
000003f0: e211 54be 27c3 323e 66e8 47be e9a6 273e
0.020148933 0.097475 0.12860668 0.18756495 0.09842463 -0.002341649 -0.06541762 0.011019754
-0.16097549 0.15052998 0.10817925 -0.12794326 0.15068153 -0.247473 -0.0873546 -0.08084659
-0.12936589 0.06352386 -0.024027124 0.012934578 0.14013503 0.14351636 -0.1931938 -0.0999681
-0.13283719 0.046783227 -0.009312568 0.06408814 0.06147386 -0.08264841 0.041715614 -0.09898574
0.1828891 -0.009995407 0.1072949 0.15156727 0.047505874 0.033226088 0.037507653 -0.18971702
-0.2541242 -0.15656139 -0.06874017 -0.0013137298 0.032063577 -0.15178429 -0.18121324 -0.023032708
0.053106382 -0.10901281 0.03250217 -0.0926159 -0.059154928 -0.12657174 -0.12310721 -0.119054995
-0.06681833 0.17508082 -0.20734955 -0.17267703 -0.10735387 0.11820488 0.12929684 0.25112784
-0.08486314 -0.024213633 -0.20371655 -0.086093105 0.0028379287 0.17874889 -0.07185318 0.12149804
0.19520596 -0.20585859 -0.021683587 -0.03651668 -0.22249167 -0.13595921 -0.06310912 0.05625704
0.008321005 -0.011060458 -0.21197933 0.02869592 -0.092850775 -0.12892409 0.10045651 0.2222478
-0.1582251 0.118083954 -0.11738428 -0.034411833 0.23709944 0.04165571 0.058899026 -0.06572322
-0.03077057 0.19654155 0.24288127 0.030065155 -0.23023513 -0.030166741 0.021705234 -0.07152498
-0.0199852 -0.10382372 0.20273286 0.13179241 0.2189929 -0.073394954 -0.19673547 0.1499871
-0.19659868 0.099053286 -0.058010828 0.08005894 -0.07538187 -0.13886867 -0.13085039 -0.12629631
-0.23871113 0.14958008 -0.0019466751 -0.1171919 -0.303277 0.2571048 -0.028781973 0.11630002
-0.23490384 0.24381182 0.03170301 7.096065e-05 0.13485213 0.039945308 0.06618913 0.031429388
0.25649402 -0.013350943 0.09747314 0.110657886 -0.14050813 0.026705721 0.072911315 0.07982514
-0.072530225 -0.17094694 -0.04013019 -0.114551514 0.075716965 0.0012789613 -0.08295816 -0.1277588
0.06433995 -0.111776866 -0.016786559 0.17216179 0.0512698 0.07953007 -0.20072971 0.045168158
-0.23133862 -0.04532542 -0.22262375 0.029246788 -0.0073936693 -0.08626721 -0.16361314 0.14728825
-0.19976676 0.13445546 -0.041341607 -0.021797355 -0.18394051 0.04198769 -0.10894117 0.021395791
-0.035489365 0.1306779 4.54022e-05 0.009299753 -0.08759128 0.041345198 -0.08941311 -0.034824204
0.19890061 0.11804987 0.22044547 -0.11360129 -0.07756158 -0.017185377 0.11344055 -0.0043085436
-0.07191442 -0.021872202 -0.19637291 -0.28535467 -0.03578351 -0.024273628 -0.046301004 -0.045645833
0.035319064 -0.10439097 -0.20534928 0.02239555 0.12003705 0.10265142 -0.11671403 0.14134628
0.003201135 -0.0034982907 -0.11973008 -0.07706247 0.14129482 0.012362885 -0.08344932 0.097555086
0.22636232 -0.0828042 0.043200873 -0.14743422 -0.15916511 0.025067544 0.20735475 -0.038114477
0.122033365 0.13117614 -0.09071196 -0.1431169 -0.019174587 -0.103605606 -0.08098346 0.09542968
-0.03541665 -0.038830135 -0.05512605 -0.30916727 -0.018917728 -0.15909839 0.056628153 0.012612338
-0.09267533 -0.031180419 -0.14830153 0.07136555 0.04521493 -0.10661183 -0.060960766 -0.13245837
-0.27929455 0.026097188 0.05221639 0.2282846 -0.20709947 0.17457257 -0.19522247 0.16372265

_module.lstm_layer.bias_ih_l0 f4 [400]
00000000: b9c9 a6bb a793 1e3d 7d1d bfbb d5a4 64be
00000010: d6d9 143d 0e23 5ebe d37c 363c 13a9 1bbe
00000020: ded4 43bd b7ff d7bd 3017 50be ba45 c9bc
00000030: 4d10 b83d 3601 503e 7ed3 c6bd 7e24 11bd
00000040: d455 1a3e b7b6 e03d 29d5 0bbe 651d 55be
00000050: 40b5 2e3e 0878 13be a88b e33d 5037 89bd
00000060: fdfe cbbd b685 433d 820b 8cbc b8a7 fcbd
00000070: 3824 ed3d ac70 4cbe bd7a cfba d648 8abd
00000080: 0e96 adbd 4f5f cfbd 0934 a13b eec5 a1be
00000090: 3848 5cbd 0958 9ebd d5a4 14bb b246 1d3e
000000a0: b8d2 71be 6598 793a 2ed5 b23d 6eff 32bd
000000b0: df85 44be 4d8f 3fbd b62e c8bd 46ba 063d
000000c0: b27d fbbd 92f0 2abe ee21 57bd 3cb2 ea3d
000000d0: 3e30 6dbd edbe ac3d 0cee e73c 8020 85bd
000000e0: 806d d03d b7ee 95bd 8fb3 c0bd d765 c73d
000000f0: 948f 113e 3682 953c 4480 adbd ac25 853d
00000100: a3f9 0e3e a09a 26be 35ec 343d c931 a3bd
00000110: b041 71bd 5ff3 42be 1f92 eb3d 3bd3 523e
00000120: 788d 2a3e ff6e 153d 99fc a5bc 6cc4 c5bd
00000130: a9dd 8ebd 993f b4bc 2e4f 51bd 7cdc d63d
00000140: 422f cfbd 38e5 3a3d 6dff 0c3e 2947 bfbc
00000150: 7de2 093e 245f 843e 7399 0dbd 745c 393e
00000160: 0417 d43d 896c 8c3d a86e b23d 5634 c7bd
00000170: ce14 323e 02d7 16be 1c86 213c 3ad6 31bd
00000180: 3354 683d f380 ce3c d79d 23be d197 1e3e
00000190: cf2f b43d fe79 713d dbba 81bb c7c9 b63d
000001a0: e8f3 3dbe 3236 9f3d 3ea7 703e feec 8a3d
000001b0: 0ab3 dcbd 6b31 9c3d 32f2 613e 58ec 503e
000001c0: f5c8 50be 2dbc 31bd f1fd 20be a364 61bc
000001d0: f128 873c 8abb 3cbe 82a9 853c 1ce5 543d
000001e0: 70ee d43c dfca 17be 89e0 babd 6e8a 4b3d
000001f0: 4fd7 d4bd a098 3bbd 0563 8a3e 991f fcbd
00000200: 6fbc ee3c 3c98 943d 5c93 a33d 94d3 983d
00000210: 6343 b73d 0261 0c3e da78 023e 3c65 a8bd
00000220: 1b3a e9bb 98ee afbe 5b04 f53d cafc 95be
00000230: 6492 53be 07d7 34be 2523 463e 1d53 b5bd
00000240: de90 42be a563 46bd d453 073d e499 e83d
00000250: 7e2b 0bbe 5513 2b3d f2e2 54bd 1b99 8c3d
00000260: 0f6b d63c 7bbd f9bd 7a3a 853d c053 02bd
00000270: 9362 003e 1053 2c3c 740b bb3e 51a1 d6bd
00000280: 3224 c13d 96d4 34be 1ff7 a53d 06bb 063e
00000290: 15f8 50be 5594 1fbe a09d e63d 4f18 8fbd
000002a0: 4890 07be cc44 eb3c e56b 7dbe 4707 163d
000002b0: 00d8 213e 3772 00be 7132 163d a48e 3e3e
000002c0: 96d7 033e 78bf b03b e0ad 06be 3ebb e8bd
000002d0: 3858 81bb 3ff8 6d3d 153d 1ebe 70c8 85bd
000002e0: 57b5 15bb d4f7 2a3d 2001 e1bd 59c1 b6be
000002f0: ff46 67be 3268 5c3d 9f70 f7bd b896 b7bd
00000300: 3a3c fc3e a003 e9bd 9501 683d acbd 68bc
00000310: 884b 0bbe bc8b ebbd 481c 84bd aa79 4b3e
00000320: b819 8e3e f782 1bbd 9502 e13d 7479 a3bd
00000330: ff75 4bbd 3a96 0d3e 7e09 61bd e41e abbc
00000340: 42ef 43be 8804 aabd a3c7 b23d 0f32 333d
00000350: f59e 563c ffa7 9dbd 746e f43d 5a9b 4c3d
00000360: b144 1a3d 33b3 fabc 8194 4ebe cc50 54bc
00000370: 6690 aebc d29e 00be 91c2 063d 90d3 db3d
00000380: 7e55 723c f7e2 9cbd 9017 e9bd 5e96 913b
00000390: b9fd 9fbd 8416 343e a5a0 8c3d 1af6 e1bb
000003a0: 8da8 9fbe 48e3 863c ca63 153d dc0f 43be
000003b0: 4a02 afbd 616e 033c 112b 503e c72f 8bbe
000003c0: 4fcb 85bc ac37 943d f8eb 883d 3fa4 d5bd
000003d0: 2b3f a03d ea9e d4bd 2192 613e 8c54 163d
000003e0: fdd1 40bd d4e5 ea3d 6555 543d c766 f3bb
000003f0: 3036 c2bb 473e d4bc 4ccc db3d e55e 473e
-0.005089965 0.03871503 -0.0058323727 -0.22328503 0.036340557 -0.2169306 0.011138159 -0.15201215
-0.047810428 -0.105468206 -0.20321345 -0.024569381 0.08987484 0.20312962 -0.09708308 -0.035435192
0.15071803 0.1097235 -0.13655533 -0.20811994 0.17061329 -0.14401257 0.11110622 -0.06700003
-0.099607445 0.04773494 -0.017095331 -0.12336677 0.11579174 -0.19964856 -0.0015829426 -0.067521736
-0.08475886 -0.101256005 0.004919533 -0.3159632 -0.05377981 -0.07731635 -0.0022681255 0.15359
-0.23615539 0.0009521305 0.08732067 -0.043700628 -0.19191693 -0.04676752 -0.097745344 0.032892488
-0.12279834 -0.16693333 -0.052522592 0.11459777 -0.057907335 0.08434854 0.028311752 -0.065003395
0.101771355 -0.07320922 -0.09409248 0.09736221 0.14214927 0.018250566 -0.0847173 0.06501326
0.13962416 -0.16269922 0.044170577 -0.0796848 -0.058900535 -0.19038151 0.1150248 0.2058839
0.16655529 0.036482807 -0.02026205 -0.09656605 -0.06975872 -0.022002982 -0.051100902 0.10491273
-0.101164356 0.045628756 0.13769312 -0.023349361 0.13465305 0.25853837 -0.03457017 0.18101674
0.103559524 0.06856639 0.08712512 -0.09726779 0.17390749 -0.14730456 0.009858634 -0.043417193
0.056720924 0.025207972 -0.1597818 0.15487601 0.08798181 0.05895423 -0.0039590425 0.08925205
-0.18550074 0.07774009 0.23501298 0.06783484 -0.107763365 0.07626613 0.22065046 0.20402658
-0.20389159 -0.04339235 -0.15721871 -0.013756904 0.016499015 -0.18430915 0.01631618 0.05197631
0.025992602 -0.14823483 -0.09124858 0.049692564 -0.10392629 -0.04579985 0.2702867 -0.12310714
0.029142587 0.07255599 0.07987091 0.0746223 0.089484 0.1370888 0.12741414 -0.08222434
-0.0071175224 -0.3436172 0.11963721 -0.29294425 -0.20661312 -0.17660151 0.19349344 -0.08853743
-0.19000575 -0.048434872 0.03303893 0.11357477 -0.1359081 0.041766483 -0.051974244 0.0686514
0.026174096 -0.12194344 0.06505294 -0.03181815 0.12537603 0.0105178505 0.36532176 -0.104799874
0.09430732 -0.1765922 0.08103775 0.13157281 -0.20407136 -0.15583928 0.11260533 -0.06987058
-0.13238633 0.028719328 -0.2474819 0.036628034 0.15805054 -0.1254357 0.0366692 0.186091
0.12875208 0.0053939186 -0.13152266 -0.113638386 -0.003947284 0.058098074 -0.15452988 -0.06532371
-0.0022843683 0.041740254 -0.10986543 -0.35694388 -0.22585677 0.053810306 -0.12082028 -0.08964294
0.492647 -0.113776445 0.056642134 -0.014205378 -0.13603032 -0.115012616 -0.06450707 0.1987063
0.27753997 -0.037966695 0.109868206 -0.0798215 -0.049673077 0.13826838 -0.054940693 -0.020888753
-0.19134238 -0.083016455 0.08729484 0.04374891 0.013099422 -0.07698058 0.1193513 0.049952842
0.037663165 -0.030603027 -0.20173837 -0.012958717 -0.021309089 -0.12560585 0.032900397 0.10733712
0.014790891 -0.076604776 -0.11381447 0.004442974 -0.07812066 0.17586714 0.06866578 -0.0068957927
-0.31183282 0.016465798 0.03647212 -0.19049019 -0.085453585 0.008021922 0.20328929 -0.2718489
-0.016332297 0.07237181 0.066856325 -0.10431718 0.07824548 -0.10381873 0.220284 0.036701724
-0.04707526 0.114696175 0.05183925 -0.0074280235 -0.00592687 -0.025908602 0.10732326 0.19469793

_module.lstm_layer.weight_hh_l0 f4 [400, 100]
00000000: 18cf bbbc f472 573d 1371 2ebe 2a02 163e
00000010: 90e1 fe3c 2540 b53c 9abf 03be a509 553e
00000020: 26ae 513d e1b4 1bbc 903d 05bd 3d65 7a3e
00000030: 5c69 d73d 8069 de3d 1e61 60bd 0e0a 083e
00000040: 1d27 e33d 9469 99bd c6cd 4d3e f0bd 4dbd
00000050: 3c27 93be e831 eabc bc70 b83b 0b80 bbbb
00000060: fb19 ab3d 57fd 40be d49b 01bd dd5e 57bd
00000070: a8f9 2cbd dcb3 0ebd ec97 e8bd 9987 80be
00000080: f02a a13c cc97 8bbd 927f 1c3e 6b35 833d
00000090: 7c92 37be 7288 863d 6c57 66bd 295b 72bc
000000a0: 095e 9bbd 4989 2abe 6312 153d 9bbe 3c3e
000000b0: 2f5d b03d 7db7 53bd 762a 73bd f228 ed3c
000000c0: bb38 073e 15a2 5ebe ab6d 4b3d 8132 0cbe
000000d0: 738a 63bd 53f1 953d cc13 23be 5647 d93d
000000e0: 5802 f23c ece3 2abe 8a37 92bd e605 05be
000000f0: 0178 753e 9d29 263d c36e 33bd cbe0 b53d
00000100: ff49 003e 32c9 79bd 6435 763d f8a4 c13c
00000110: 6dc4 33bd ff74 b03c 7bdb 743d b6c3 3e3e
00000120: ea75 853d d957 ae3d bcf8 a23d 5d44 e7bc
00000130: 7f30 e33b 71cd 02be 3cd9 83bd cbef a5bd
00000140: 4b3e a63d 21c2 27bd 9700 1bbe 05f0 463d
00000150: 487a 363d 0c26 8c3d 9bc6 303c 12b7 e1bd
00000160: e63b a63d 2242 93bd 1cc0 443e 7585 e8bd
00000170: 7f2a e1bd 6a11 363d c4f2 ba3d 165c 023e
00000180: 1f33 4f3e 94cb 1bbd 8b54 adbd c876 4fbe
00000190: 7d7f babb 3ba5 b5bd 9f8d 13be 1443 cc3d
000001a0: b73c 31bd a987 2fbd c16d e2bd ef10 4abe
000001b0: f655 e93c 59be acbc d78c 3abe 916e fdbc
000001c0: 421d 223d 5d43 333e 8026 233c a18f c6bd
000001d0: 6c4f 693d 9f61 44bd de73 363e bbe2 223e
000001e0: 6644 e93b b0f7 f63c 1fcb 2f3e 837f cf3d
000001f0: 5e10 ecbd 26dc 163e 5074 923d ed76 d2bd
00000200: 9036 a83d 46a1 05bd 435d 30bd f00b 8d3d
00000210: 2d1c 53be 81ba 19be a68f da3d a4c7 24bd
00000220: d69d 833d de76 98bd 46bc c73d 1923 9abd
00000230: 75af 5e3e d087 b4bd c097 fabd d237 993c
00000240: 5a87 03be 1a70 243e 7646 2f3d 6be9 d13d
00000250: 6389 463e 4361 673d b4f9 a43d b85f 043e
00000260: bbb7 db3d 5f61 b7bd 45d0 02bd 6a81 fb3d
00000270: 093a dd3d 1e7c 36bc 3386 8f3d 182c 053e
00000280: 7074 71bd abb4 52bc 8789 75bd 36cf 5b3d
00000290: d0a1 353e 150f 05be 7ada a23d b1be 723e
000002a0: c1b1 10be a712 ef3d 4b3e 2abe e039 66be
000002b0: 3a7e 343e 93ad fc3d a8ac 5abe ba88 503d
000002c0: 231a 19be bd85 73bb e8b3 36be 6cc6 b1bd
000002d0: bb66 29be 4f2f f33d 25b1 e03d 2379 113c
000002e0: cfd3 cebd 0f61 90be ac81 09be c341 8ebc
000002f0: 2212 6c3d 9920 4f3d 60b5 cb3c e7b0 8f3c
00000300: e050 2abe 27e1 733d b837 923c 1fc9 3fbc
00000310: bcbd 4abd 1dc8 343e 1c71 d1bd b5f3 2cbd
00000320: 2a9e 48bc d41e 93bd c671 953c 4fa3 81be
00000330: 076b 98bd b916 05be 8c18 37be 33a5 013d
00000340: eeb3 cebc b90b e43b 1ffd 433e 4e07 67be
00000350: fb95 193d 681d 32bc a85a 99bc 70ee 4e3e
00000360: bf5f 14be f30c 793d dc85 e0bd b122 64bd
00000370: a444 74be 0afc a83d 35b6 fd3b 01b8 2c3e
00000380: 77b3 d7bd 1d56 2bbd 5d67 f3bc 4f45 4cbe
00000390: ef79 babd bcc6 d5bd 2a03 0d3d 1d71 483d
000003a0: 17af af3d a4a5 59bd 7301 5fbe 0b90 773d
000003b0: ceec 09be 3a76 bcbd 321e 15be 0e07 0abd
000003c0: b4ac 5e3d 96cb 08be 66cc e93d ceae 523b
000003d0: 9ee9 003d 156e b83d 4339 283c e368 78bb
000003e0: b129 aa3d 9c00 733d d941 6abe d328 0c3e
000003f0: d6fa 3abe 4651 0c3e afde a73d 1f04 90bd
-0.022925898 0.052599862 -0.17035322 0.14649263 0.031113416 0.022125313 -0.12866059 0.2080446
0.05119147 -0.009503574 -0.032529414 0.24452682 0.105181426 0.10859966 -0.05478012 0.13285086
0.11091445 -0.074908406 0.20098028 -0.050229967 -0.2874087 -0.02858825 0.0056286734 -0.005722051
0.08354565 -0.18846641 -0.03164275 -0.052580703 -0.04223028 -0.034839496 -0.11357102 -0.25103453
0.019673795 -0.06816062 0.15283039 0.06406673 -0.17926973 0.06568994 -0.056235716 -0.014792242
-0.07586295 -0.16653933 0.036394488 0.18432085 0.08611523 -0.05168866 -0.059366666 0.028950188
0.13205235 -0.21741517 0.049665134 -0.1369114 -0.055551957 0.073214196 -0.1592552 0.106093094
0.029542133 -0.16688508 -0.071394995 -0.12990531 0.23971559 0.04056703 -0.043806802 0.088807665
0.12528227 -0.06098289 0.06010951 0.023638234 -0.043888498 0.021540163 0.059779625 0.18629345
0.06516631 0.08512849 0.079575986 -0.02823084 0.0069332714 -0.12773682 -0.064379185 -0.081023775
0.0811735 -0.04095662 -0.15136944 0.048568744 0.04455021 0.06843194 0.010789539 -0.11021246
0.081168935 -0.07190348 0.19213909 -0.1135358 -0.109944336 0.0444502 0.09128335 0.1273044
0.20234345 -0.038035944 -0.08463391 -0.20260155 -0.0056914673 -0.08869406 -0.14409493 0.09973732
-0.043270793 -0.042853985 -0.1105609 -0.19733022 0.028483372 -0.021086859 -0.18217789 -0.030936511
0.039578684 0.17506166 0.00995791 -0.09695364 0.05696051 -0.04794466 0.17817637 0.15906803
0.0071187494 0.030147403 0.17167328 0.10131743 -0.11526559 0.14732417 0.07151091 -0.102765895
0.08213532 -0.032624505 -0.04305769 0.068870425 -0.20616217 -0.15012552 0.1067193 -0.040229455
0.06426589 -0.07444547 0.09752707 -0.075262256 0.21746619 -0.08814967 -0.12235975 0.018703375
-0.12844601 0.16058388 0.042791806 0.10249599 0.19388346 0.05648924 0.080554396 0.12927139
0.10728403 -0.08954119 -0.031936903 0.12280543 0.10802085 -0.01113799 0.07008018 0.13005102
-0.058948934 -0.012860457 -0.05994561 0.05366441 0.17737508 -0.12994035 0.07951827 0.23705555
-0.14130308 0.116734795 -0.16625325 -0.22483015 0.17626277 0.12337794 -0.21354926 0.050911643
-0.14951377 -0.0037158572 -0.17842066 -0.08680424 -0.16543095 0.11874258 0.10971288 0.008878979
-0.10098993 -0.2819905 -0.13428372 -0.017365342 0.05763448 0.050568197 0.02486676 0.017540408
-0.16632414 0.059540894 0.017848834 -0.011705666 -0.04949735 0.17654462 -0.10226652 -0.042224605
-0.0122447405 -0.071836144 0.018242728 -0.25319907 -0.07442289 -0.1299695 -0.17880458 0.031651687
-0.025232282 0.0069594053 0.19139527 -0.2256138 0.03749655 -0.010871269 -0.018719986 0.20208144
-0.14489649 0.060803365 -0.10963032 -0.055697147 -0.2385431 0.08251198 0.007742668 0.16867067
-0.10532277 -0.04183017 -0.029712373 -0.19948314 -0.09105288 -0.10438296 0.034426846 0.048936
0.085783176 -0.053136483 -0.21777897 0.060440104 -0.1346924 -0.092022374 -0.145623 -0.033698134
0.05436392 -0.13358912 0.11415939 0.0032147649 0.031472795 0.090053715 0.0102675585 -0.0037904314
0.08308733 0.059326753 -0.22876681 0.13687448 -0.18259749 0.13702878 0.081967704 -0.07032036

_module.lstm_layer.bias_hh_l0 f4 [400]
00000000: 1996 8a3d 7f72 033e 6dd5 e3bc 755d 5bbe
00000010: 6920 e13d d757 023e 6854 be3e 5bfa 983e
00000020: 2a0d 75bd 5c61 b33d 3215 b13d ecb5 293e
00000030: 203f aebc 67f3 1ebd 5b7c 573d 3749 bd3d
00000040: 5a41 943d e44c 193e a990 033c a642 62be
00000050: ce8c 003d 12c5 85be 1797 173e a29e 06be
00000060: 0a87 0ebe b105 fc3a a813 7cbe fb74 23bb
00000070: 5e76 083e 306a 1b3d 1fb1 cfbd 8605 9b3a
00000080: 1316 28bc 12dd 83be 9f1a 92be 1085 853d
00000090: 665a 92bc 4110 d8bd 8a43 e23c d3a2 033d
000000a0: 20f4 563d b142 fa3a 62a9 a23d 49de 08be
000000b0: 04fc ce3c bb4c 3fbd 6c86 31be bbbc 963e
000000c0: 138b e13d 642b 36bd 0b9c 833e b4b6 c33c
000000d0: fcaf e6bd d315 de3d e208 ee3a 1124 e2bd
000000e0: 51b9 8dbe 329a 47bd c735 f2bd 3f40 643d
000000f0: 65e2 ffbd c31f 7d3c 9bf0 b5bd c14f b0bb
00000100: 5104 96bd 3875 223e 57b2 18bc a5ee 153e
00000110: 1d26 f9bd 67be 8bbc d40a ec3d dfb2 82bc
00000120: 930a 173c 461c 483d 9ec0 04be 6bb1 13be
00000130: 28f7 c63c a35b 19bd 12cd 0e3e c967 57be
00000140: 6993 ee3c 0ae8 e1bc a8b9 fb3c 9d4f 18be
00000150: f277 41bc c115 1a3e 9475 923c 0f84 cabd
00000160: 82ac 7dbd a5f5 d1bc 35f3 90bc bcd5 223e
00000170: 4e04 0b3e 2e47 ddbc 7988 1e3e 4e48 b43c
00000180: 5863 9b3d d1fb 17be f71f 223e 07cd 27be
00000190: 9911 213e ef6b 15bc c629 ab3b 7c26 973c
000001a0: f248 803c 9503 1d3d c45e 7a3c 063d 5e3d
000001b0: 4d23 0f3e d99f 78bd 0c22 cbbd eb9d 643e
000001c0: 4120 6e3d 90a5 003e dfc8 6b3e 5d45 6bbd
000001d0: b1e7 2c3d 2c65 30be 69bd 07be 6558 00bc
000001e0: 574c c23d 04f0 d6bd 023b 94bd 6a68 a53d
000001f0: eadc 4d3a 229e ed3c a5a4 063e eec3 433c
00000200: f47d 213e 631d 80be 2fd6 0cbe 5712 e33a
00000210: 9f30 00be e0f5 683c bff2 083e 9e4c af3d
00000220: 79d4 e13d fa2f c63d b3b6 0f3e f52c 7d3e
00000230: 434f e3bd fa1b 963c 1722 ffbd 7e3d 82bd
00000240: 882c 563e 38ac b03c 69e8 a83c e325 06bc
00000250: 993f f43d 8091 643e 6c84 263e a418 a0bd
00000260: a72e 5abe 29d4 263e 0b08 a03d 9f9f 08bd
00000270: 3e9c 0e3e 4f2f 23bc 43d8 983d fdf7 ac3c
00000280: 7fb5 1f3e 6f77 873e 27e7 79bd d63f 513e
00000290: 3b31 0cbe 330c c2bd e98a adbd 81af 853d
000002a0: b806 903d a35a fb3d 3a7d 5a3d a3b0 093e
000002b0: 6c0f ff3d 29e2 923d c3e6 44bd b6a3 5bbd
000002c0: 179e 433e 61fc 15bd 053d c93d a4f0 6dbe
000002d0: 0c60 803d 981b 4e3e 6878 3abd f5db b1bc
000002e0: 3669 023e 8a62 73bd 5650 b13c 0847 b5bd
000002f0: 88c7 f1bc 81cf 923d 40c6 493d 0b14 bd3d
00000300: fbe1 83be 1cb8 393d ea57 0bbe 186c 40bd
00000310: 69c0 0cbd 8b48 35be b66d 8fba 20f7 763d
00000320: 82e0 2b3e 84e0 313e f7e4 6ebd 1fb2 123d
00000330: 75ef 15be 91db 373e 910e 0cbe 863e c7bd
00000340: 0370 acbe faf1 35bd 13c4 f73d 19c4 8c3d
00000350: 33a7 dcbd 61d0 c23d 415a b8bd 47ae 49bd
00000360: 4f1b db3d eaba 0ebd 9562 cabd 46a4 8ebd
00000370: 3065 5d3c e50c b2bd 1b96 91be c42c 113d
00000380: b37e 2fbe 27cf 093e c49a 39be 92d7 943d
00000390: 0cc5 d7bd d122 96bd 8f7a 863e 65cf 2f3d
000003a0: ce10 06be df2f 13be 1f41 45be 0341 2c3d
000003b0: 2644 85bd ac12 ccbd fedb 7d3d 258b f3bd
000003c0: 027d 3c3e 8ec8 aabd 7f6c 46bd d6ac 24be
000003d0: ce1a 1cbe 5110 563d a9f5 093e 570e 3f3e
000003e0: 9534 a5bd e7fb 0d3d d040 ed3c 1e6c 213d
000003f0: c137 0ebe 822a b33c 86e0 38bc fd7f 8cbe
0.0676691 0.12836646 -0.02781173 -0.2142237 0.1099251 0.1272882 0.37173772 0.29878506
-0.059827007 0.08758804 0.08646621 0.16573304 -0.021270335 -0.038806345 0.05260883 0.0924248
0.07239027 0.14970738 0.008030095 -0.22095737 0.03138428 -0.26126915 0.1480373 -0.13146451
-0.13918701 0.001922777 -0.24616873 -0.0024941552 0.13326403 0.037943065 -0.10141205 0.0011827208
-0.010259169 -0.257546 -0.28535935 0.0651952 -0.017865371 -0.10549975 0.027620096 0.032137703
0.05247891 0.0019093362 0.079424635 -0.13366045 0.025266655 -0.046704035 -0.17336434 0.29440865
0.110128544 -0.044474974 0.2570499 0.02389083 -0.11264035 0.108440064 0.0018160606 -0.11042035
-0.27680448 -0.048731036 -0.118266635 0.055725332 -0.12494353 0.015449467 -0.088837825 -0.005380601
-0.07325042 0.15865028 -0.009319863 0.14641817 -0.12165473 -0.017058564 0.11525503 -0.015954433
0.00921883 0.04885509 -0.12964103 -0.14423148 0.024287775 -0.037440907 0.13945416 -0.21035685
0.029123025 -0.027576465 0.030728176 -0.1487412 -0.011808382 0.15047361 0.017878331 -0.098884694
-0.061932094 -0.025629828 -0.017694095 0.15901846 0.13575861 -0.02701148 0.15481748 0.022007134
0.07587308 -0.14842154 0.15832506 -0.16386805 0.15729369 -0.009119972 0.0052234856 0.018450968
0.015659783 0.038333494 0.015281383 0.054257415 0.1397831 -0.060699318 -0.09918603 0.22325866
0.05813623 0.12563157 0.23025845 -0.057439197 0.042213146 -0.17226094 -0.13255848 -0.007833575
0.09487217 -0.10494998 -0.07237817 0.08076556 0.0007853048 0.029006068 0.13148744 0.011948569
0.15770704 -0.2502242 -0.1375358 0.0017324191 -0.12518547 0.014218777 0.1337385 0.085595354
0.11026854 0.096771196 0.14034538 0.24724181 -0.11099102 0.018323887 -0.12457674 -0.06359385
0.20915425 0.021566495 0.020618634 -0.008187744 0.11926193 0.22321129 0.16261452 -0.078172
-0.21306859 0.1629187 0.07814034 -0.03335535 0.13926789 -0.00996001 0.07463124 0.021114344
0.15596579 0.26458308 -0.06101146 0.20434508 -0.13690655 -0.09474983 -0.08473761 0.06527615
0.070325315 0.12273147 0.05334208 0.13446288 0.12454113 0.07172043 -0.048071634 -0.053622924
0.19103275 -0.03661764 0.09826092 -0.23236328 0.062683195 0.20127714 -0.045524985 -0.021711329
0.12735447 -0.059420146 0.021644752 -0.08851439 -0.02951409 0.071684845 0.04926133 0.092323385
-0.25758347 0.045341596 -0.13607755 -0.046978086 -0.034363184 -0.17703454 -0.0010942731 0.06029427
0.16784862 0.17370802 -0.058323827 0.0358144 -0.14642127 0.17954852 -0.13677432 -0.09728722
-0.33679208 -0.04442022 0.12097945 0.0687334 -0.10774078 0.09512401 -0.090015896 -0.04923847
0.10698568 -0.034846224 -0.09882084 -0.069649264 0.0135128945 -0.08693866 -0.28434834 0.035443082
-0.17138176 0.13457929 -0.18125445 0.07267679 -0.105356306 -0.073308595 0.2626538 0.042922396
-0.13092348 -0.1437373 -0.19263123 0.042054188 -0.06507139 -0.09964499 0.06197738 -0.11891774
0.18407062 -0.08339034 -0.048443314 -0.16081557 -0.152446 0.052261654 0.13472618 0.18657814
-0.0806667 0.03466406 0.02896157 0.03940975 -0.13888456 0.021870855 -0.011283999 -0.27441397

_module.lstm_layer.l0.ih.weight f4 [400, 100]
00000000: 600f a53c f9a0 c73d 78b1 033e 0711 403e
00000010: da92 c93d 5a76 19bb acf9 85bd 338c 343c
00000020: c2d6 24be 8824 1a3e 158d dd3d 8f03 03be
00000030: 424c 1a3e 9069 7dbe f8e6 b2bd e692 a5bd
00000040: 7e78 04be cc18 823d 88d4 c4bc 8deb 533c
00000050: 8f7f 0f3e f4f5 123e 98d4 45be 13bc ccbd
00000060: 7906 08be c59f 3f3d be93 18bc a540 833d
00000070: 04cc 7b3d 9243 a9bd fedd 2a3d 09b9 cabd
00000080: 4847 3b3e c7c3 23bc 6ebd db3d 7334 1b3e
00000090: 8595 423d 1418 083d a0a1 193d 2e45 42be
000000a0: 911c 82be a151 20be a5c7 8cbd 7531 acba
000000b0: 1955 033d 576d 1bbe f78f 39be 17af bcbc
000000c0: 1486 593d 1c42 dfbd ff20 053d 68ad bdbd
000000d0: 704c 72bd 069c 01be a21f fcbd 1bd3 f3bd
000000e0: 0cd8 88bd 6348 333e 7153 54be 3fd2 30be
000000f0: 59dc dbbd 6615 f23d 6466 043e d493 803e
00000100: bacc adbd ab5b c6bc 129b 50be 9551 b0bd
00000110: 8bfc 393b f309 373e c327 93bd f7d3 f83d
00000120: 12e4 473e 98cc 52be c7a1 b1bc 8492 15bd
00000130: dbd4 63be e438 0bbe 5b3f 81bd c86d 663d
00000140: d354 083c ec36 35bc 1c11 59be b513 eb3c
00000150: 8c28 bebd ad04 04be 25bc cd3d ed94 633e
00000160: c305 22be 00d6 f13d 2b67 f0bd 6cf3 0cbd
00000170: 32ca 723e 2e9f 2a3d 1b40 713d e599 86bd
00000180: 9012 fcbc 3042 493e deb5 783e 334b f63c
00000190: c2c2 6bbe 3e20 f7bc 2dcf b13c b07b 92bd
000001a0: 01b8 a3bc 88a1 d4bd 3499 4f3e 97f4 063e
000001b0: ad3f 603e 1850 96bd 0675 49be 3896 193e
000001c0: 2a51 49be 73dc ca3d c39c 6dbd f1f5 a33d
000001d0: cf61 9abd 9733 0ebe a5fd 05be d253 01be
000001e0: b170 74be 852b 193e 9427 ffba 4f02 f0bd
000001f0: 1f47 9bbe 3ea3 833e 2cc8 ebbc b42e ee3d
00000200: a28a 70be cea9 793e 04db 013d b5d0 9438
00000210: ad16 0a3e b19d 233d 2b8e 873d 1abc 003d
00000220: 2f53 833e eabd 5abc ff9f c73d 9aa0 e23d
00000230: 5de1 0fbe f5c5 da3c 8752 953d 5d7b a33d
00000240: ba8a 94bd b70c 2fbe 8e5f 24bd fc99 eabd
00000250: 7f11 9b3d d2a2 a73a f8e5 a9bd 34d3 02be
00000260: aac4 833d 45eb e4bd f783 89bc 2e4b 303e
00000270: 4800 523d a9e0 a23d 178c 4dbe 3f02 393d
00000280: 08e4 6cbe 26a7 39bd 7bf7 63be f696 ef3c
00000290: 9846 f2bb ddac b0bd 348a 27be bbd2 163e
000002a0: a88f 4cbe b1ae 093e d155 29bd 5e90 b2bc
000002b0: e75a 3cbe 49fb 2b3d 8c1c dfbd 3a46 af3c
000002c0: 4c5d 11bd 6dd0 053e 3e6e 3e38 fe5d 183c
000002d0: 0f63 b3bd 9559 293d 381e b7bd d3a3 0ebd
000002e0: 9aac 4b3e 21c4 f13d 75bc 613e cba7 e8bd
000002f0: 9bd8 9ebd 59c8 8cbc 8553 e83d af2e 8dbb
00000300: de47 93bd 552d b3bc fb15 49be 021a 92be
00000310: bb91 12bd 7dd9 c6bc 1fa6 3dbd 20f7 3abd
00000320: b9aa 103d efca d5bd 1547 52be df76 b73c
00000330: fcd5 f53d e83a d23d c407 efbd 14bd 103e
00000340: 22ca 513b 9443 65bb 0b35 f5bd eed2 9dbd
00000350: 97af 103e b38d 4a3c 7ae7 aabd f6ca c73d
00000360: 86cb 673e 4095 a9bd 66f3 303d fff8 16be
00000370: 2efc 22be 735a cd3c ce54 543e ed1d 1cbd
00000380: a1ec f93d 0a53 063e 31c7 b9bd 3d8d 12be
00000390: 0614 9dbc 2d2f d4bd a8da a5bd a370 c33d
000003a0: 0d11 11bd 590c 1fbd dacb 61bd 2c4b 9ebe
000003b0: 5af9 9abc b0ea 22be ecf2 673d fba3 4e3c
000003c0: 90cc bdbd 146e ffbc 5bdc 17be 1a28 923d
000003d0: 4a33 393d 4e57 dabd ffb1 79bd 2ba3 07be
000003e0: b2ff 8ebe c5c9 d53c dae0 553d 70c3 693e
000003f0: e211 54be 27c3 323e 66e8 47be e9a6 273e
0.020148933 0.097475 0.12860668 0.18756495 0.09842463 -0.002341649 -0.06541762 0.011019754
-0.16097549 0.15052998 0.10817925 -0.12794326 0.15068153 -0.247473 -0.0873546 -0.08084659
-0.12936589 0.06352386 -0.024027124 0.012934578 0.14013503 0.14351636 -0.1931938 -0.0999681
-0.13283719 0.046783227 -0.009312568 0.06408814 0.06147386 -0.08264841 0.041715614 -0.09898574
0.1828891 -0.009995407 0.1072949 0.15156727 0.047505874 0.033226088 0.037507653 -0.18971702
-0.2541242 -0.15656139 -0.06874017 -0.0013137298 0.032063577 -0.15178429 -0.18121324 -0.023032708
0.053106382 -0.10901281 0.03250217 -0.0926159 -0.059154928 -0.12657174 -0.12310721 -0.119054995
-0.06681833 0.17508082 -0.20734955 -0.17267703 -0.10735387 0.11820488 0.12929684 0.25112784
-0.08486314 -0.024213633 -0.20371655 -0.086093105 0.0028379287 0.17874889 -0.07185318 0.12149804
0.19520596 -0.20585859 -0.021683587 -0.03651668 -0.22249167 -0.13595921 -0.06310912 0.05625704
0.008321005 -0.011060458 -0.21197933 0.02869592 -0.092850775 -0.12892409 0.10045651 0.2222478
-0.1582251 0.118083954 -0.11738428 -0.034411833 0.23709944 0.04165571 0.058899026 -0.06572322
-0.03077057 0.19654155 0.24288127 0.030065155 -0.23023513 -0.030166741 0.021705234 -0.07152498
-0.0199852 -0.10382372 0.20273286 0.13179241 0.2189929 -0.073394954 -0.19673547 0.1499871
-0.19659868 0.099053286 -0.058010828 0.08005894 -0.07538187 -0.13886867 -0.13085039 -0.12629631
-0.23871113 0.14958008 -0.0019466751 -0.1171919 -0.303277 0.2571048 -0.028781973 0.11630002
-0.23490384 0.24381182 0.03170301 7.096065e-05 0.13485213 0.039945308 0.06618913 0.031429388
0.25649402 -0.013350943 0.09747314 0.110657886 -0.14050813 0.026705721 0.072911315 0.07982514
-0.072530225 -0.17094694 -0.04013019 -0.114551514 0.075716965 0.0012789613 -0.08295816 -0.1277588
0.06433995 -0.111776866 -0.016786559 0.17216179 0.0512698 0.07953007 -0.20072971 0.045168158
-0.23133862 -0.04532542 -0.22262375 0.029246788 -0.0073936693 -0.08626721 -0.16361314 0.14728825
-0.19976676 0.13445546 -0.041341607 -0.021797355 -0.18394051 0.04198769 -0.10894117 0.021395791
-0.035489365 0.1306779 4.54022e-05 0.009299753 -0.08759128 0.041345198 -0.08941311 -0.034824204
0.19890061 0.11804987 0.22044547 -0.11360129 -0.07756158 -0.017185377 0.11344055 -0.0043085436
-0.07191442 -0.021872202 -0.19637291 -0.28535467 -0.03578351 -0.024273628 -0.046301004 -0.045645833
0.035319064 -0.10439097 -0.20534928 0.02239555 0.12003705 0.10265142 -0.11671403 0.14134628
0.003201135 -0.0034982907 -0.11973008 -0.07706247 0.14129482 0.012362885 -0.08344932 0.097555086
0.22636232 -0.0828042 0.043200873 -0.14743422 -0.15916511 0.025067544 0.20735475 -0.038114477
0.122033365 0.13117614 -0.09071196 -0.1431169 -0.019174587 -0.103605606 -0.08098346 0.09542968
-0.03541665 -0.038830135 -0.05512605 -0.30916727 -0.018917728 -0.15909839 0.056628153 0.012612338
-0.09267533 -0.031180419 -0.14830153 0.07136555 0.04521493 -0.10661183 -0.060960766 -0.13245837
-0.27929455 0.026097188 0.05221639 0.2282846 -0.20709947 0.17457257 -0.19522247 0.16372265

_module.lstm_layer.l0.ih.bias f4 [400]
00000000: b9c9 a6bb a793 1e3d 7d1d bfbb d5a4 64be
00000010: d6d9 143d 0e23 5ebe d37c 363c 13a9 1bbe
00000020: ded4 43bd b7ff d7bd 3017 50be ba45 c9bc
00000030: 4d10 b83d 3601 503e 7ed3 c6bd 7e24 11bd
00000040: d455 1a3e b7b6 e03d 29d5 0bbe 651d 55be
00000050: 40b5 2e3e 0878 13be a88b e33d 5037 89bd
00000060: fdfe cbbd b685 433d 820b 8cbc b8a7 fcbd
00000070: 3824 ed3d ac70 4cbe bd7a cfba d648 8abd
00000080: 0e96 adbd 4f5f cfbd 0934 a13b eec5 a1be
00000090: 3848 5cbd 0958 9ebd d5a4 14bb b246 1d3e
000000a0: b8d2 71be 6598 793a 2ed5 b23d 6eff 32bd
000000b0: df85 44be 4d8f 3fbd b62e c8bd 46ba 063d
000000c0: b27d fbbd 92f0 2abe ee21 57bd 3cb2 ea3d
000000d0: 3e30 6dbd edbe ac3d 0cee e73c 8020 85bd
000000e0: 806d d03d b7ee 95bd 8fb3 c0bd d765 c73d
000000f0: 948f 113e 3682 953c 4480 adbd ac25 853d
00000100: a3f9 0e3e a09a 26be 35ec 343d c931 a3bd
00000110: b041 71bd 5ff3 42be 1f92 eb3d 3bd3 523e
00000120: 788d 2a3e ff6e 153d 99fc a5bc 6cc4 c5bd
00000130: a9dd 8ebd 993f b4bc 2e4f 51bd 7cdc d63d
00000140: 422f cfbd 38e5 3a3d 6dff 0c3e 2947 bfbc
00000150: 7de2 093e 245f 843e 7399 0dbd 745c 393e
00000160: 0417 d43d 896c 8c3d a86e b23d 5634 c7bd
00000170: ce14 323e 02d7 16be 1c86 213c 3ad6 31bd
00000180: 3354 683d f380 ce3c d79d 23be d197 1e3e
00000190: cf2f b43d fe79 713d dbba 81bb c7c9 b63d
000001a0: e8f3 3dbe 3236 9f3d 3ea7 703e feec 8a3d
000001b0: 0ab3 dcbd 6b31 9c3d 32f2 613e 58ec 503e
000001c0: f5c8 50be 2dbc 31bd f1fd 20be a364 61bc
000001d0: f128 873c 8abb 3cbe 82a9 853c 1ce5 543d
000001e0: 70ee d43c dfca 17be 89e0 babd 6e8a 4b3d
000001f0: 4fd7 d4bd a098 3bbd 0563 8a3e 991f fcbd
00000200: 6fbc ee3c 3c98 943d 5c93 a33d 94d3 983d
00000210: 6343 b73d 0261 0c3e da78 023e 3c65 a8bd
00000220: 1b3a e9bb 98ee afbe 5b04 f53d cafc 95be
00000230: 6492 53be 07d7 34be 2523 463e 1d53 b5bd
00000240: de90 42be a563 46bd d453 073d e499 e83d
00000250: 7e2b 0bbe 5513 2b3d f2e2 54bd 1b99 8c3d
00000260: 0f6b d63c 7bbd f9bd 7a3a 853d c053 02bd
00000270: 9362 003e 1053 2c3c 740b bb3e 51a1 d6bd
00000280: 3224 c13d 96d4 34be 1ff7 a53d 06bb 063e
00000290: 15f8 50be 5594 1fbe a09d e63d 4f18 8fbd
000002a0: 4890 07be cc44 eb3c e56b 7dbe 4707 163d
000002b0: 00d8 213e 3772 00be 7132 163d a48e 3e3e
000002c0: 96d7 033e 78bf b03b e0ad 06be 3ebb e8bd
000002d0: 3858 81bb 3ff8 6d3d 153d 1ebe 70c8 85bd
000002e0: 57b5 15bb d4f7 2a3d 2001 e1bd 59c1 b6be
000002f0: ff46 67be 3268 5c3d 9f70 f7bd b896 b7bd
00000300: 3a3c fc3e a003 e9bd 9501 683d acbd 68bc
00000310: 884b 0bbe bc8b ebbd 481c 84bd aa79 4b3e
00000320: b819 8e3e f782 1bbd 9502 e13d 7479 a3bd
00000330: ff75 4bbd 3a96 0d3e 7e09 61bd e41e abbc
00000340: 42ef 43be 8804 aabd a3c7 b23d 0f32 333d
00000350: f59e 563c ffa7 9dbd 746e f43d 5a9b 4c3d
00000360: b144 1a3d 33b3 fabc 8194 4ebe cc50 54bc
00000370: 6690 aebc d29e 00be 91c2 063d 90d3 db3d
00000380: 7e55 723c f7e2 9cbd 9017 e9bd 5e96 913b
00000390: b9fd 9fbd 8416 343e a5a0 8c3d 1af6 e1bb
000003a0: 8da8 9fbe 48e3 863c ca63 153d dc0f 43be
000003b0: 4a02 afbd 616e 033c 112b 503e c72f 8bbe
000003c0: 4fcb 85bc ac37 943d f8eb 883d 3fa4 d5bd
000003d0: 2b3f a03d ea9e d4bd 2192 613e 8c54 163d
000003e0: fdd1 40bd d4e5 ea3d 6555 543d c766 f3bb
000003f0: 3036 c2bb 473e d4bc 4ccc db3d e55e 473e
-0.005089965 0.03871503 -0.0058323727 -0.22328503 0.036340557 -0.2169306 0.011138159 -0.15201215
-0.047810428 -0.105468206 -0.20321345 -0.024569381 0.08987484 0.20312962 -0.09708308 -0.035435192
0.15071803 0.1097235 -0.13655533 -0.20811994 0.17061329 -0.14401257 0.11110622 -0.06700003
-0.099607445 0.04773494 -0.017095331 -0.12336677 0.11579174 -0.19964856 -0.0015829426 -0.067521736
-0.08475886 -0.101256005 0.004919533 -0.3159632 -0.05377981 -0.07731635 -0.0022681255 0.15359
-0.23615539 0.0009521305 0.08732067 -0.043700628 -0.19191693 -0.04676752 -0.097745344 0.032892488
-0.12279834 -0.16693333 -0.052522592 0.11459777 -0.057907335 0.08434854 0.028311752 -0.065003395
0.101771355 -0.07320922 -0.09409248 0.09736221 0.14214927 0.018250566 -0.0847173 0.06501326
0.13962416 -0.16269922 0.044170577 -0.0796848 -0.058900535 -0.19038151 0.1150248 0.2058839
0.16655529 0.036482807 -0.02026205 -0.09656605 -0.06975872 -0.022002982 -0.051100902 0.10491273
-0.101164356 0.045628756 0.13769312 -0.023349361 0.13465305 0.25853837 -0.03457017 0.18101674
0.103559524 0.06856639 0.08712512 -0.09726779 0.17390749 -0.14730456 0.009858634 -0.043417193
0.056720924 0.025207972 -0.1597818 0.15487601 0.08798181 0.05895423 -0.0039590425 0.08925205
-0.18550074 0.07774009 0.23501298 0.06783484 -0.107763365 0.07626613 0.22065046 0.20402658
-0.20389159 -0.04339235 -0.15721871 -0.013756904 0.016499015 -0.18430915 0.01631618 0.05197631
0.025992602 -0.14823483 -0.09124858 0.049692564 -0.10392629 -0.04579985 0.2702867 -0.12310714
0.029142587 0.07255599 0.07987091 0.0746223 0.089484 0.1370888 0.12741414 -0.08222434
-0.0071175224 -0.3436172 0.11963721 -0.29294425 -0.20661312 -0.17660151 0.19349344 -0.08853743
-0.19000575 -0.048434872 0.03303893 0.11357477 -0.1359081 0.041766483 -0.051974244 0.0686514
0.026174096 -0.12194344 0.06505294 -0.03181815 0.12537603 0.0105178505 0.36532176 -0.104799874
0.09430732 -0.1765922 0.08103775 0.13157281 -0.20407136 -0.15583928 0.11260533 -0.06987058
-0.13238633 0.028719328 -0.2474819 0.036628034 0.15805054 -0.1254357 0.0366692 0.186091
0.12875208 0.0053939186 -0.13152266 -0.113638386 -0.003947284 0.058098074 -0.15452988 -0.06532371
-0.0022843683 0.041740254 -0.10986543 -0.35694388 -0.22585677 0.053810306 -0.12082028 -0.08964294
0.492647 -0.113776445 0.056642134 -0.014205378 -0.13603032 -0.115012616 -0.06450707 0.1987063
0.27753997 -0.037966695 0.109868206 -0.0798215 -0.049673077 0.13826838 -0.054940693 -0.020888753
-0.19134238 -0.083016455 0.08729484 0.04374891 0.013099422 -0.07698058 0.1193513 0.049952842
0.037663165 -0.030603027 -0.20173837 -0.012958717 -0.021309089 -0.12560585 0.032900397 0.10733712
0.014790891 -0.076604776 -0.11381447 0.004442974 -0.07812066 0.17586714 0.06866578 -0.0068957927
-0.31183282 0.016465798 0.03647212 -0.19049019 -0.085453585 0.008021922 0.20328929 -0.2718489
-0.016332297 0.07237181 0.066856325 -0.10431718 0.07824548 -0.10381873 0.220284 0.036701724
-0.04707526 0.114696175 0.05183925 -0.0074280235 -0.00592687 -0.025908602 0.10732326 0.19469793

_module.lstm_layer.l0.hh.weight f4 [400, 100]
00000000: 18cf bbbc f472 573d 1371 2ebe 2a02 163e
00000010: 90e1 fe3c 2540 b53c 9abf 03be a509 553e
00000020: 26ae 513d e1b4 1bbc 903d 05bd 3d65 7a3e
00000030: 5c69 d73d 8069 de3d 1e61 60bd 0e0a 083e
00000040: 1d27 e33d 9469 99bd c6cd 4d3e f0bd 4dbd
00000050: 3c27 93be e831 eabc bc70 b83b 0b80 bbbb
00000060: fb19 ab3d 57fd 40be d49b 01bd dd5e 57bd
00000070: a8f9 2cbd dcb3 0ebd ec97 e8bd 9987 80be
00000080: f02a a13c cc97 8bbd 927f 1c3e 6b35 833d
00000090: 7c92 37be 7288 863d 6c57 66bd 295b 72bc
000000a0: 095e 9bbd 4989 2abe 6312 153d 9bbe 3c3e
000000b0: 2f5d b03d 7db7 53bd 762a 73bd f228 ed3c
000000c0: bb38 073e 15a2 5ebe ab6d 4b3d 8132 0cbe
000000d0: 738a 63bd 53f1 953d cc13 23be 5647 d93d
000000e0: 5802 f23c ece3 2abe 8a37 92bd e605 05be
000000f0: 0178 753e 9d29 263d c36e 33bd cbe0 b53d
00000100: ff49 003e 32c9 79bd 6435 763d f8a4 c13c
00000110: 6dc4 33bd ff74 b03c 7bdb 743d b6c3 3e3e
00000120: ea75 853d d957 ae3d bcf8 a23d 5d44 e7bc
00000130: 7f30 e33b 71cd 02be 3cd9 83bd cbef a5bd
00000140: 4b3e a63d 21c2 27bd 9700 1bbe 05f0 463d
00000150: 487a 363d 0c26 8c3d 9bc6 303c 12b7 e1bd
00000160: e63b a63d 2242 93bd 1cc0 443e 7585 e8bd
00000170: 7f2a e1bd 6a11 363d c4f2 ba3d 165c 023e
00000180: 1f33 4f3e 94cb 1bbd 8b54 adbd c876 4fbe
00000190: 7d7f babb 3ba5 b5bd 9f8d 13be 1443 cc3d
000001a0: b73c 31bd a987 2fbd c16d e2bd ef10 4abe
000001b0: f655 e93c 59be acbc d78c 3abe 916e fdbc
000001c0: 421d 223d 5d43 333e 8026 233c a18f c6bd
000001d0: 6c4f 693d 9f61 44bd de73 363e bbe2 223e
000001e0: 6644 e93b b0f7 f63c 1fcb 2f3e 837f cf3d
000001f0: 5e10 ecbd 26dc 163e 5074 923d ed76 d2bd
00000200: 9036 a83d 46a1 05bd 435d 30bd f00b 8d3d
00000210: 2d1c 53be 81ba 19be a68f da3d a4c7 24bd
00000220: d69d 833d de76 98bd 46bc c73d 1923 9abd
00000230: 75af 5e3e d087 b4bd c097 fabd d237 993c
00000240: 5a87 03be 1a70 243e 7646 2f3d 6be9 d13d
00000250: 6389 463e 4361 673d b4f9 a43d b85f 043e
00000260: bbb7 db3d 5f61 b7bd 45d0 02bd 6a81 fb3d
00000270: 093a dd3d 1e7c 36bc 3386 8f3d 182c 053e
00000280: 7074 71bd abb4 52bc 8789 75bd 36cf 5b3d
00000290: d0a1 353e 150f 05be 7ada a23d b1be 723e
000002a0: c1b1 10be a712 ef3d 4b3e 2abe e039 66be
000002b0: 3a7e 343e 93ad fc3d a8ac 5abe ba88 503d
000002c0: 231a 19be bd85 73bb e8b3 36be 6cc6 b1bd
000002d0: bb66 29be 4f2f f33d 25b1 e03d 2379 113c
000002e0: cfd3 cebd 0f61 90be ac81 09be c341 8ebc
000002f0: 2212 6c3d 9920 4f3d 60b5 cb3c e7b0 8f3c
00000300: e050 2abe 27e1 733d b837 923c 1fc9 3fbc
00000310: bcbd 4abd 1dc8 343e 1c71 d1bd b5f3 2cbd
00000320: 2a9e 48bc d41e 93bd c671 953c 4fa3 81be
00000330: 076b 98bd b916 05be 8c18 37be 33a5 013d
00000340: eeb3 cebc b90b e43b 1ffd 433e 4e07 67be
00000350: fb95 193d 681d 32bc a85a 99bc 70ee 4e3e
00000360: bf5f 14be f30c 793d dc85 e0bd b122 64bd
00000370: a444 74be 0afc a83d 35b6 fd3b 01b8 2c3e
00000380: 77b3 d7bd 1d56 2bbd 5d67 f3bc 4f45 4cbe
00000390: ef79 babd bcc6 d5bd 2a03 0d3d 1d71 483d
000003a0: 17af af3d a4a5 59bd 7301 5fbe 0b90 773d
000003b0: ceec 09be 3a76 bcbd 321e 15be 0e07 0abd
000003c0: b4ac 5e3d 96cb 08be 66cc e93d ceae 523b
000003d0: 9ee9 003d 156e b83d 4339 283c e368 78bb
000003e0: b129 aa3d 9c00 733d d941 6abe d328 0c3e
000003f0: d6fa 3abe 4651 0c3e afde a73d 1f04 90bd
-0.022925898 0.052599862 -0.17035322 0.14649263 0.031113416 0.022125313 -0.12866059 0.2080446
0.05119147 -0.009503574 -0.032529414 0.24452682 0.105181426 0.10859966 -0.05478012 0.13285086
0.11091445 -0.074908406 0.20098028 -0.050229967 -0.2874087 -0.02858825 0.0056286734 -0.005722051
0.08354565 -0.18846641 -0.03164275 -0.052580703 -0.04223028 -0.034839496 -0.11357102 -0.25103453
0.019673795 -0.06816062 0.15283039 0.06406673 -0.17926973 0.06568994 -0.056235716 -0.014792242
-0.07586295 -0.16653933 0.036394488 0.18432085 0.08611523 -0.05168866 -0.059366666 0.028950188
0.13205235 -0.21741517 0.049665134 -0.1369114 -0.055551957 0.073214196 -0.1592552 0.106093094
0.029542133 -0.16688508 -0.071394995 -0.12990531 0.23971559 0.04056703 -0.043806802 0.088807665
0.12528227 -0.06098289 0.06010951 0.023638234 -0.043888498 0.021540163 0.059779625 0.18629345
0.06516631 0.08512849 0.079575986 -0.02823084 0.0069332714 -0.12773682 -0.064379185 -0.081023775
0.0811735 -0.04095662 -0.15136944 0.048568744 0.04455021 0.06843194 0.010789539 -0.11021246
0.081168935 -0.07190348 0.19213909 -0.1135358 -0.109944336 0.0444502 0.09128335 0.1273044
0.20234345 -0.038035944 -0.08463391 -0.20260155 -0.0056914673 -0.08869406 -0.14409493 0.09973732
-0.043270793 -0.042853985 -0.1105609 -0.19733022 0.028483372 -0.021086859 -0.18217789 -0.030936511
0.039578684 0.17506166 0.00995791 -0.09695364 0.05696051 -0.04794466 0.17817637 0.15906803
0.0071187494 0.030147403 0.17167328 0.10131743 -0.11526559 0.14732417 0.07151091 -0.102765895
0.08213532 -0.032624505 -0.04305769 0.068870425 -0.20616217 -0.15012552 0.1067193 -0.040229455
0.06426589 -0.07444547 0.09752707 -0.075262256 0.21746619 -0.08814967 -0.12235975 0.018703375
-0.12844601 0.16058388 0.042791806 0.10249599 0.19388346 0.05648924 0.080554396 0.12927139
0.10728403 -0.08954119 -0.031936903 0.12280543 0.10802085 -0.01113799 0.07008018 0.13005102
-0.058948934 -0.012860457 -0.05994561 0.05366441 0.17737508 -0.12994035 0.07951827 0.23705555
-0.14130308 0.116734795 -0.16625325 -0.22483015 0.17626277 0.12337794 -0.21354926 0.050911643
-0.14951377 -0.0037158572 -0.17842066 -0.08680424 -0.16543095 0.11874258 0.10971288 0.008878979
-0.10098993 -0.2819905 -0.13428372 -0.017365342 0.05763448 0.050568197 0.02486676 0.017540408
-0.16632414 0.059540894 0.017848834 -0.011705666 -0.04949735 0.17654462 -0.10226652 -0.042224605
-0.0122447405 -0.071836144 0.018242728 -0.25319907 -0.07442289 -0.1299695 -0.17880458 0.031651687
-0.025232282 0.0069594053 0.19139527 -0.2256138 0.03749655 -0.010871269 -0.018719986 0.20208144
-0.14489649 0.060803365 -0.10963032 -0.055697147 -0.2385431 0.08251198 0.007742668 0.16867067
-0.10532277 -0.04183017 -0.029712373 -0.19948314 -0.09105288 -0.10438296 0.034426846 0.048936
0.085783176 -0.053136483 -0.21777897 0.060440104 -0.1346924 -0.092022374 -0.145623 -0.033698134
0.05436392 -0.13358912 0.11415939 0.0032147649 0.031472795 0.090053715 0.0102675585 -0.0037904314
0.08308733 0.059326753 -0.22876681 0.13687448 -0.18259749 0.13702878 0.081967704 -0.07032036
