DKT/ckpts/dkt/ASSIST2012/model.ckpt (torch, 644270 bytes, 11 tensors)

_module.interaction_emb.weight f4 [528, 100]
0.9186965 0.692383 -0.16851602 0.12320634 -0.4476369 -0.9440299 1.1649511 2.3789663
-0.6973252 -0.51870674 0.69344413 0.92191666 0.6820594 0.8644536 0.5786642 -0.23553038
-0.10956036 0.58363634 -0.12792064 0.30198547 -0.19608748 -0.9456172 1.9484628 0.10351176
0.8951557 -1.0101582 1.2038184 2.7509503 -0.018777201 1.938898 0.58370197 0.19867016
-0.0070214826 0.1235432 1.223106 -0.6013195 2.1775846 1.3249258 -0.027994411 0.7243479
-0.30165538 0.09644292 -0.6287814 0.2527674 -0.9343081 0.1900593 1.4070121 0.18229106
-0.31380403 -0.3290119 -0.30494007 0.24662985 0.13428237 -1.0651096 0.20242584 1.3349108
0.56625116 -1.2812673 0.51372117 0.69877386 -0.60630876 -0.032684635 0.244575 -0.21173269
0.3287844 0.64301866 -1.7662954 -1.4517742 0.6107211 -0.48674008 0.6569557 0.84429693
-1.8405908 0.6955251 -1.0153455 0.4405443 0.029789474 0.9259727 -1.665188 -0.5813833
-0.12983622 -1.004134 -0.20977509 1.2855828 0.5036903 -0.019627606 -1.3268682 -0.6725666
-1.8666924 1.7207377 -0.35675573 -2.3154082 -0.6767895 -0.2622902 1.1461804 0.35194337
0.11237928 0.93612087 -2.4620502 0.020534817 0.06550268 0.43470508 -0.41699582 0.7879089
1.0748194 -0.25255236 -1.4779884 0.7756351 -1.0885825 -1.1228067 -0.19728296 -1.2684256
-1.0912108 0.8772003 -0.07011567 0.51907426 -0.27651843 1.2910099 0.65818065 0.46885356
-1.4716576 0.28674772 -0.8112615 -0.5034332 0.85752803 -0.09770218 -1.6679137 -0.53425586
-1.1841414 1.2134668 0.37963647 0.48982742 0.8808567 0.23348235 -0.8640669 -0.43465114
-0.50977117 0.31631938 -1.1997888 -0.26832324 2.018031 0.8390763 -2.8411021 1.3248377
1.5268192 -0.6139626 0.5428445 0.37579057 -0.16821627 -0.97710276 -1.0934212 -0.6071384
0.8452239 1.5270221 -0.83472747 -2.4730873 -0.23247814 0.7490816 0.57519245 -0.88269156
-0.71422535 1.0414296 -1.5219194 -0.39546028 -0.9975676 0.45966592 -0.7748216 -1.2370679
0.7746017 -0.7846348 -0.1411314 -1.4832778 -0.3253049 0.18894026 -0.43319756 -0.90908974
-1.1958914 0.6232734 -0.35225698 -1.3610728 0.3582324 1.637374 -0.6106699 0.34993333
-0.40114307 -1.0710081 2.1209183 0.33493012 0.13961577 -0.6670436 -0.05113654 2.1565607
0.75240564 0.28333786 -2.0649037 -0.06337376 -1.2296704 0.72668904 0.05271497 -0.016980391
2.793572 1.9159501 -0.7680057 0.3024618 0.58936304 2.5297043 -0.75816125 1.4350505
1.3065777 0.019579943 0.3682395 -0.61432153 -0.91522455 0.47421238 -1.0236996 1.2030691
-0.9462919 0.69842094 -0.86242133 -1.4430977 -1.9809391 1.4386988 -0.6255955 -0.46872735
-0.1535479 -1.3548176 1.0312229 -0.62444854 -0.661668 0.107632734 -2.5971384 -0.6990522
-1.5004381 -0.8497624 -2.0872426 -0.020358833 -1.2405748 -0.6892025 0.74288 3.6086028
-0.010274374 -1.6902939 0.38332438 -1.127004 0.55145323 0.1441039 0.27992162 0.38296577
0.08811016 -0.4204483 -0.59927803 -1.3218935 0.75750875 1.0105368 -0.4744916 0.86990786
00000000: b22f 6b3f 0340 313f 778f 2cbe 9b53 fc3d
00000010: aa30 e5be f2ab 71bf 1e1d 953f fc40 1840
00000020: e883 32bf f7c9 04bf 8e85 313f bb02 6c3f
00000030: 729b 2e3f d54c 5d3f 5623 143f e02e 71be
00000040: 2f61 e0bd 3169 153f a1fd 02be d79d 9a3e
00000050: 28cb 48be f813 72bf 3b67 f93f f9fd d33d
00000060: ed28 653f dd4c 81bf b916 9a3f 920f 3040
00000070: a5d2 99bc cf2d f83f 7e6d 153f 3170 4b3e
00000080: 7714 e6bb 3804 fd3d bd8e 9c3f 13f0 19bf
00000090: 8c5d 0b40 2b97 a93f 8954 e5bc dd6e 393f
000000a0: 9372 9abe de83 c53d d1f7 20bf bb6a 813e
000000b0: d12e 6fbf e89e 423e f918 b43f 82aa 3a3e
000000c0: ecaa a0be 3f74 a8be 1b21 9cbe 898c 7c3e
000000d0: 5181 093e 8355 88bf b848 4f3e 5bde aa3f
000000e0: d6f5 103f 9100 a4bf 3b83 033f d8e2 323f
000000f0: 0d37 1bbf 53e0 05bd de71 7a3e 74d0 58be
00000100: 6e56 a83e df9c 243f f815 e2bf bdd3 b9bf
00000110: 3858 1c3f ff35 f9be 402e 283f d823 583f
00000120: 7b98 ebbf ef0d 323f d7f6 81bf 068f e13e
00000130: 0e09 f43c 8c0c 6d3f e124 d5bf 89d5 14bf
00000140: c9f3 04be 7787 80bf 48cf 56be fa8d a43f
00000150: d9f1 003f 13ca a0bc d1d6 a9bf 532d 2cbf
00000160: c7ef eebf 2241 dc3f b0a8 b6be a62f 14c0
00000170: 1442 2dbf e74a 86be 0ab6 923f ec31 b43e
00000180: 1c27 e63d 9ea5 6f3f 3b92 1dc0 a238 a83c
00000190: 4526 863d aa91 de3e 7a80 d5be 66b4 493f
000001a0: af93 893f 8b4e 81be b92e bdbf 0690 463f
000001b0: ac56 8bbf 21b8 8fbf 8b04 4abe c55b a2bf
000001c0: ccac 8bbf 3390 603f ce98 8fbd 0de2 043f
000001d0: d393 8dbe d03f a53f 877e 283f 930d f03e
000001e0: 475f bcbf 99d0 923e d5ae 4fbf 00e1 00bf
000001f0: f586 5b3f 1518 c8bd 327e d5bf fec4 08bf
00000200: f291 97bf e152 9b3f b65f c23e a9ca fa3e
00000210: d37f 613f ff15 6f3e 7d33 5dbf 988a debe
00000220: 5d80 02bf 9df4 a13e ae92 99bf aa61 89be
00000230: 6b27 0140 b4cd 563f 9ed4 35c0 4894 a93f
00000240: d06e c33f a72c 1dbf dbf7 0a3f 9f67 c03e
00000250: e340 2cbe 6823 7abf 3af5 8bbf 6c6d 1bbf
00000260: 9860 583f 7675 c33f b3b0 55bf 1047 1ec0
00000270: c00e 6ebe d0c3 3f3f d03f 133f 13f8 61bf
00000280: 79d7 36bf 914d 853f 41ce c2bf c579 cabe
00000290: 9760 7fbf 5559 eb3e b55a 46bf 3e58 9ebf
000002a0: 4c4c 463f d4dd 48bf c084 10be 0cdc bdbf
000002b0: 5d8e a6be 8e79 413e 12cc ddbe 1bba 68bf
000002c0: f812 99bf d88e 1f3f 075b b4be a237 aebf
000002d0: 3d6a b73e 7995 d13f dd54 1cbf 762a b33e
000002e0: a062 cdbe cb16 89bf 20bd 0740 f67b ab3e
000002f0: 70f7 0e3e 5fc3 2abf 8c74 51bd 1705 0a40
00000300: a89d 403f a911 913e 6227 04c0 1aca 81bd
00000310: d765 9dbf 4b08 3a3f a7eb 573d 761a 8bbc
00000320: e2c9 3240 da3d f53f 069c 44bf 46dc 9a3e
00000330: 7fe0 163f ade6 2140 db16 42bf bcaf b73f
00000340: f03d a73f 1e66 a03c e389 bc3e 2d44 1dbf
00000350: 284c 6abf f7cb f23e 9708 83bf 2bfe 993f
00000360: 3040 72bf b7cb 323f a5c7 5cbf 6db7 b8bf
00000370: 6a8f fdbf 4827 b83f 0727 20bf 08fd efbe
00000380: a93b 1dbe aa6a adbf 1dff 833f dcdb 1fbf
00000390: 1363 29bf 8d6e dc3d 8437 26c0 16f5 32bf
000003a0: 5b0e c0bf 078a 59bf 6295 05c0 91c7 a6bc
000003b0: 28cb 9ebf 936f 30bf 622d 3e3f 59f3 6640
000003c0: d955 28bc 8d5b d8bf 1843 c43e ab41 90bf
000003d0: 0a2c 0d3f f98f 133e e351 8f3e 1714 c43e
000003e0: 1973 b43d 0045 d7be 496a 19bf ce33 a9bf
000003f0: 18ec 413f 4559 813f 90f0 f2be 48b2 5e3f

_module.lstm_layer.weight_ih_l0 f4 [400, 100]
-0.21694426 -0.094854124 0.21216406 0.15812571 -0.091651626 -0.17957827 0.048642684 0.043477222
-0.06303821 -0.031623065 -0.11437177 0.00866363 0.28656897 0.26365563 -0.02640702 -0.057822514
-0.08969669 -0.047095116 -0.009106319 -0.07494526 0.27509287 0.18067129 -0.12384722 -0.041190945
-0.035980392 -0.015746001 -0.081860445 -0.113368265 -0.15820582 0.13812721 -0.06581339 0.24857317
0.10298164 0.017112888 -0.109109074 -0.1520107 0.12591684 -0.10720244 -0.032474685 -0.12264867
0.10436841 0.07993198 0.008184177 -0.07821382 0.040776473 -0.16033752 -0.14395437 -0.021287274
-0.0584753 -0.03598929 -0.008071171 0.0156314 -0.085088715 -0.0696808 -0.3318423 -0.12604398
0.17474893 0.30742615 -0.005417934 0.09540404 -0.1811742 -0.12054543 -0.057273068 0.03309518
0.11522617 -0.2099062 0.29108867 0.062378448 0.035565518 -0.19667879 -0.0302918 -0.015397281
0.042246446 -0.06559787 -0.08782227 0.061481394 0.019027192 0.07027583 0.050465137 0.065109335
-0.023711566 0.023176054 -0.27150306 -0.07130193 0.30615398 -0.10951388 0.17302874 -0.0993501
0.079963595 0.16263022 -0.3616299 -0.014485983 -0.00016246314 0.039744344 0.16890043 -0.19806392
0.19505244 -0.23800041 0.080751315 0.05567217 0.29974896 -0.027864782 -0.13148932 -0.0790875
0.0116895735 0.0924486 0.0726646 0.15123308 -0.05220352 0.020985099 -0.04905965 0.12857382
0.047829587 0.06999282 -0.007565252 -0.24187356 -0.1593749 -0.0976203 -0.25210318 -0.088548265
0.123848125 -0.022349311 0.06569136 0.017302968 -0.069819346 0.07165444 0.06994792 0.08047665
0.22235163 -0.118471004 0.17020166 -0.12360483 -0.23199354 0.054871585 0.07564147 -0.13297237
-0.25402245 0.198621 -0.12311997 0.3396337 -0.17594911 -0.057076152 0.061235055 0.047592238
-0.092601605 -0.40988398 0.2121675 0.051916342 -0.17117763 0.04488302 -0.100588314 -0.19608288
0.3780241 -0.12971969 0.06431999 0.043255847 0.088332966 0.2070244 -0.14008912 -0.026851581
0.008047407 -0.113011494 0.13412195 0.11829816 0.1105242 0.11692945 -0.15338354 0.13991831
0.13739747 0.023312226 -0.15940243 0.1821349 0.17969356 -0.036957264 -0.21842203 -0.12815088
-0.13812888 -0.08272611 0.03888803 0.15691449 -0.16996033 -0.06558098 0.07428836 0.08353336
-0.15719628 0.022017017 0.19305654 -0.028713295 0.06853142 -0.23933041 0.13359576 0.07176633
0.15609954 0.15016784 -0.17895007 -0.0304773 0.11978227 -0.0718104 0.018136097 0.047205683
0.15247387 -0.07975105 0.07661727 0.0438236 0.0053503113 0.041683435 -0.21584985 -0.00095133
-0.08154848 0.12774114 0.04169166 0.1706628 0.14642301 0.030487884 -0.12442265 -0.21021765
0.08650301 -0.10941257 -0.27158728 -0.22321612 0.09001302 0.04359589 -0.042517617 0.024218636
-0.06482959 0.23645017 0.04991212 -0.12719646 0.12253717 0.17174006 -0.19783834 0.070687465
-0.035391778 0.11947806 -0.08263142 0.17886662 0.082386695 0.04893429 -0.038147762 -0.033244114
-0.099828415 0.019723332 0.038212016 0.042381994 -0.04439209 0.08609597 -0.10248652 0.13399413
0.207022 0.05541322 -0.16062094 -0.05874137 0.26223305 0.09297457 0.08352288 -0.004516701
00000000: a326 5ebe e142 c2bd 8941 593e b5eb 213e
00000010: d9b3 bbbd 5ee3 37be 8d3d 473d 2c15 323d
00000020: 2d1a 81bd 3087 01bd bf3b eabd e6f1 0d3c
00000030: 2bb9 923e dffd 863e 8953 d8bc 4dd7 6cbd
00000040: e6b2 b7bd cfe6 40bd ac32 15bc e77c 99bd
00000050: f9d8 8c3e e501 393e 9ca3 fdbd d6b7 28bd
00000060: 2d60 13bd c2fd 80bc 73a6 a7bd 9f2d e8bd
00000070: b500 22be 3871 0d3e 2cc9 86bd f789 7e3e
00000080: 0ae8 d23d 5430 8c3c 9474 dfbd b1a8 1bbe
00000090: 58f0 003e f48c dbbd 2d04 05bd 3a2f fbbd
000000a0: 1bbf d53d 61b3 a33d ed16 063c 912e a0bd
000000b0: 3b05 273d 852f 24be c668 13be a662 aebc
000000c0: cc83 6fbd 8169 13bd f23c 04bc 6c0d 803c
000000d0: fe42 aebd cfb4 8ebd 3ce7 a9be ac11 01be
000000e0: 62f1 323e f666 9d3e ed88 b1bb 3163 c33d
000000f0: bb85 39be 86e0 f6bd 2a97 6abd d08e 073d
00000100: b3fb eb3d a7f1 56be 9309 953e 8b80 7f3d
00000110: 26ad 113d 2a66 49be 8226 f8bc e144 7cbc
00000120: 9c0a 2d3d 2d58 86bd 2adc b3bd ead3 7b3d
00000130: eade 9b3c c6ec 8f3d 88b4 4e3d 0b58 853d
00000140: c23e c2bc b5db bd3c 7302 8bbe bf06 92bd
00000150: 37c0 9c3e d048 e0bd 722e 313e 1178 cbbd
00000160: f4c3 a33d 8988 263e 8e27 b9be 9e56 6dbc
00000170: de5a 2ab9 f7ca 223d 3cf4 2c3e 45d1 4abe
00000180: d4bb 473e 61b6 73be f260 a53d 8008 643d
00000190: b278 993e af44 e4bc 23a5 06be a1f8 a1bd
000001a0: a085 3f3c b155 bd3d 2ed1 943d d8dc 1a3e
000001b0: 5cd3 55bd f1e8 ab3c c6f2 48bd dba8 033e
000001c0: f5e8 433d 6558 8f3d efe5 f7bb b4ad 77be
000001d0: 2c33 23be 27ed c7bd ab13 81be cb58 b5bd
000001e0: 16a4 fd3d e715 b7bc 3189 863d f4be 8d3c
000001f0: 72fd 8ebd 90bf 923d db40 8f3d f1d0 a43d
00000200: 25b0 633e eda0 f2bd 5849 2e3e 8724 fdbd
00000210: b78f 6dbe 07c1 603d eae9 9a3d e929 08be
00000220: 3b0f 82be 4e63 4b3e 5326 fcbd 78e4 ad3e
00000230: 012c 34be afc8 69bd 9cd1 7a3d 14f0 423d
00000240: e9a5 bdbd 50dc d1be 7042 593e 3ba6 543d
00000250: 3049 2fbe 42d7 373d 3f01 cebd f3c9 48be
00000260: 608c c13e 3dd5 04be 33ba 833d 0b2d 313d
00000270: eae7 b43d 34fe 533e 8673 0fbe d9f7 dbbc
00000280: 45d9 033c 9272 e7bd 4457 093e 4e46 f23d
00000290: 835a e23d b578 ef3d 9310 1dbe bf46 0f3e
000002a0: ecb1 0c3e 48f9 be3c 643a 23be 9281 3a3e
000002b0: 9701 383e 8060 17bd 06aa 5fbe fc39 03be
000002c0: a871 0dbe 4f6c a9bd 0e49 1f3d 31ae 203e
000002d0: 150a 2ebe 524f 86bd 7f24 983d 8a13 ab3d
000002e0: 10f8 20be 085d b43c 9db0 453e 2538 ebbc
000002f0: 335a 8c3d 0813 75be 54cd 083e 3afa 923d
00000300: 8fd8 1f3e 99c5 193e b03e 37be 88ab f9bc
00000310: 6850 f53d 5511 93bd 2792 943c bf5a 413d
00000320: 1c22 1c3e 8554 a3bd 84e9 9c3d 6080 333d
00000330: aa51 af3b 40bc 2a3d be07 5dbe ad62 79ba
00000340: e402 a7bd 93ce 023e e0c4 2a3d 3bc2 2e3e
00000350: eaef 153e bac1 f93c 4dd1 febd 4c43 57be
00000360: 7d28 b13d b313 e0bd 7d0d 8bbe c492 64be
00000370: bf58 b83d 9b91 323d f426 2ebd 2966 c63c
00000380: 60c5 84bd fe1f 723e a770 4c3d ca3f 02be
00000390: c5f4 fa3d a0dc 2f3e 2296 4abe 97c4 903d
000003a0: f8f6 10bd eab0 f43d a93a a9bd d028 373e
000003b0: 5bba a83d 526f 483d d440 1cbd fb2a 08bd
000003c0: d772 ccbd d392 a13c 3484 1c3d be98 2d3d
000003d0: 7bd4 35bd 1553 b03d 74e4 d1bd c235 093e
000003e0: 93fd 533e f9f8 623d d179 24be ca9a 70bd
000003f0: 6943 863e 7469 be3d 0b0e ab3d d600 94bb

_module.lstm_layer.bias_ih_l0 f4 [400]
-0.17090559 0.1989753 0.033917997 -0.36869085 0.14336951 -0.10287217 -0.07937784 -0.071521915
-0.0016011684 0.101928376 0.058781244 0.07452665 -0.082677536 -0.08514982 -0.12936684 0.07489194
-0.15528907 -0.0142973345 0.11777673 -0.042874835 -0.03765744 -0.02087472 0.16709699 0.092826955
-0.12698989 -0.110354565 0.078543365 -0.02137151 0.10394328 0.20971793 -0.10128594 -0.10294117
0.13437633 -0.13436742 0.23214644 -0.13229339 0.1975931 0.075737946 -0.064999744 9.5913885e-05
-0.027686503 0.11406395 0.20374152 -0.11731897 0.06809906 0.20616324 -0.13804471 0.048335135
0.052136622 0.19890074 -0.059835985 -0.10645582 0.039609507 0.025948098 -0.23768306 -0.110311575
0.15222524 -0.030648999 -0.03332749 0.31097656 -0.025342537 0.089719884 -0.05318405 -0.15681505
0.37969458 -0.22364716 -0.07096377 0.011677217 -0.05743346 -0.13090453 0.07191444 -0.08326887
0.16932614 0.27510864 0.043789186 -0.03783785 0.012964775 0.1945752 0.20269863 -0.13706662
-0.26356876 0.10752532 -0.0055154953 -0.11776546 0.11282153 -0.11834302 -0.18456309 -0.09801641
0.18207088 -0.060257696 -0.2784211 -0.0936621 -0.014667476 -0.0062626605 -0.06833491 -0.0069595394
-0.10494251 0.20527998 0.24222113 0.049308274 0.0044014356 0.03656186 -0.40242627 0.24744304
-0.06034406 -0.081060976 -0.14173299 0.014222797 0.14376166 -0.12838596 0.0785434 0.022890434
-0.117562465 -0.012356855 0.26021507 0.031983927 -0.101394035 0.019593796 -0.20490555 0.1240078
0.3139844 0.051756293 -0.002359252 0.026256919 0.17132635 -0.15428247 -0.021509625 0.16155533
0.24602848 -1.3231219e-05 0.052355222 -0.22844093 -0.030051176 0.5764603 -0.008659706 0.03610742
-0.29786864 0.18854968 0.021484915 0.13992424 -0.09944666 -0.110382505 0.050764374 0.09896035
-0.20201296 0.24058573 -0.06889545 -0.020404162 -0.19639952 0.14779986 0.13129215 0.1326946
0.050281186 0.09301165 0.09350635 -0.0043663043 0.0318917 -0.13143152 0.063839205 0.02317586
-0.13423818 0.024080375 -0.06983224 -0.12510909 0.13953334 -0.07875661 0.024104267 0.09508207
0.10845433 -0.11198747 -0.00076022686 -0.13567354 -0.060809538 -0.0015519959 0.064876474 -0.00024172361
-0.1332051 -0.061018437 0.13876835 -0.03902529 0.040635765 0.049609352 -0.18078691 0.08759533
0.02937641 0.10342185 0.055898614 0.16620253 -0.055683147 -0.07590831 0.14830378 0.14118534
-0.07526346 0.06416895 -0.027379557 -0.04073218 0.04286298 -0.04177351 0.09993598 -0.17315723
-0.27846062 0.0031484596 0.08363301 0.02240832 -0.18034194 -0.12530136 0.20509243 0.17640236
-0.12020514 -0.06990966 -0.22926337 -0.29857796 -0.19984835 -0.14447233 0.04050107 0.21440208
0.055954296 -0.24033366 0.22765829 -0.07898425 -0.25342074 -0.27123407 -0.0041022305 -0.25848916
-0.101994775 -0.03769131 0.028230479 0.22308557 0.025006464 0.09687742 0.2109836 0.13902093
0.16842811 -0.013987375 0.1703783 -0.18010868 -0.094569124 -0.072924495 0.0784927 -0.16151325
-0.254927 -0.07559614 0.19421408 0.06117823 0.048750952 -0.45201442 -0.021813734 -0.16937746
0.08611516 0.15726769 0.11345872 -0.10646519 -0.0964759 0.008718076 -0.16699295 0.044463042
00000000: e001 2fbe 2ec0 4b3e 99ed 0a3d 0cc5 bcbe
00000010: 75cf 123e a5ae d2bd d990 a2bd 157a 92bd
00000020: 4cde d1ba d3bf d03d 9ac4 703d 6ea1 983d
00000030: d752 a9bd 0763 aebd be78 04be f260 993d
00000040: 1904 1fbe 5e3f 6abc ed34 f13d 869d 2fbd
00000050: b03e 1abd 7601 abbc 791b 2b3e 0f1c be3d
00000060: a309 02be 9301 e2bd 58db a03d 4e13 afbc
00000070: 37e0 d43d 4cc0 563e 016f cfbd d2d2 d2bd
00000080: f399 093e 9d97 09be ccb7 6d3e eb77 07be
00000090: d855 4a3e 7f1c 9b3d 961e 85bd 6025 c938
000000a0: cece e2bc 5c9a e93d 9ea1 503e ee44 f0bd
000000b0: 8577 8b3d 751c 533e 985b 0dbe 10fb 453d
000000c0: 368d 553d a3ac 4b3e 9416 75bd 8205 dabd
000000d0: 943d 223d 1b91 d43c 3063 73be 09eb e1bd
000000e0: efe0 1b3e 9c13 fbbc 6882 08bd 5238 9f3e
000000f0: 279b cfbc 0fbf b73d 85d7 59bd 2094 20be
00000100: 5467 c23e c303 65be 7455 91bd cc51 3f3c
00000110: 593f 6bbd d60b 06be e147 933d df88 aabd
00000120: d563 2d3e 0adb 8c3e 4a5c 333d ddfb 1abd
00000130: 356a 543c b93e 473e 3b90 4f3e 315b 0cbe
00000140: 7cf2 86be 3c36 dc3d 54bb b4bb 042f f1bd
00000150: f90e e73d d35d f2bd 1bfe 3cbe d4bc c8bd
00000160: ca70 3a3e c6d0 76bd 368d 8ebe ead1 bfbd
00000170: da4f 70bc 0137 cdbb 2cf3 8bbd d90c e4bb
00000180: 19ec d6bd ea34 523e d108 783e 79f7 493d
00000190: eb39 903b e4c1 153d d10a cebe b561 7d3e
000001a0: 552b 77bd 4c03 a6bd 7422 11be bc06 693c
000001b0: 4236 133e 9c77 03be 5ddb a03d b884 bb3c
000001c0: 97c4 f0bd 6874 4abc e93a 853e 9401 033d
000001d0: ada7 cfbd 2b83 a03c c3d2 51be cdf7 fd3d
000001e0: 90c2 a03e 68fe 533d ae9d 1abb c018 d73c
000001f0: 2d70 2f3e 39fc 1dbe f434 b0bc c36e 253e
00000200: e4ee 7b3e a7fb 5db7 6e72 563d 6bec 69be
00000210: e22d f6bc e792 133f 71e1 0dbc 60e5 133d
00000220: 3d82 98be 2b13 413e 2201 b03c 4d48 0f3e
00000230: b1aa cbbd 3910 e2bd 4eee 4f3d b9ab ca3d
00000240: 7cdc 4ebe 1b5c 763e 0f19 8dbd a126 a7bc
00000250: f51c 49be d958 173e 7371 063e 18e1 073e
00000260: a5f3 4d3d e47c be3d 4280 bf3d 3713 8fbb
00000270: dfa0 023d fc95 06be 21be 823d 4ddb bd3c
00000280: bc75 09be 3544 c53c 3504 8fbd 991c 00be
00000290: d4e1 0e3e 254b a1bd 5076 c53c 63ba c23d
000002a0: 4e1d de3d b059 e5bd f649 47ba 01ee 0abe
000002b0: 6c13 79bd 576c cbba f5dd 843d 3077 7db9
000002c0: eb66 08be 78ee 79bd 4a19 0e3e fcd8 1fbd
000002d0: b071 263d 2d33 4b3d 3420 39be 2e65 b33d
000002e0: cca6 f03c d6ce d33d f2f5 643d ff30 2a3e
000002f0: 0314 64bd d175 9bbd f2dc 173e e492 103e
00000300: bb23 9abd 036b 833d 184b e0bc c9d6 26bd
00000310: 1891 2f3d b31a 2bbd 3cab cc3d 2150 31be
00000320: 6492 8ebe 6356 4e3b c947 ab3d a791 b73c
00000330: 8fab 38be 004f 00be c003 523e d2a2 343e
00000340: 1d2e f6bd cc2c 8fbd 04c4 6abe 36df 98be
00000350: 0ca5 4cbe 8ef0 13be 73e4 253d 388c 5b3e
00000360: 5530 653d 071a 76be 411f 693e 7fc2 a1bd
00000370: 5dc0 81be 31df 8abe 016c 86bb b158 84be
00000380: a3e2 d0bd 3462 1abd 9b43 e73c 8b70 643e
00000390: 5bda cc3c ab67 c63d 160c 583e 815b 0e3e
000003a0: 6b78 2c3e 4e2b 65bc a677 2e3e 696e 38be
000003b0: 75ad c1bd 7059 95bd c8c0 a03d bb63 25be
000003c0: cb85 82be 26d2 9abd 0ee0 463e 0696 7a3d
000003d0: 14af 473d 6f6e e7be b7b2 b2bc 4971 2dbe
000003e0: 255d b03d c80a 213e 0c5d e83d 6c0a dabd
000003f0: 2895 c5bd 43d6 0e3c 3300 2bbe e11e 363d

_module.lstm_layer.weight_hh_l0 f4 [400, 100]
0.122939534 0.09359155 -0.1639476 0.047896285 0.19586204 0.19722484 -0.07810938 0.019488279
0.22715713 -0.094382085 -0.16261038 -0.012964509 0.18355227 0.035687547 -0.054265805 -0.08262679
0.08437201 0.010705239 -0.08139487 0.023674138 0.02675539 -0.14521351 0.210334 0.074822515
0.00897001 0.116088234 0.08536998 -0.059149865 0.02327722 0.0165106 0.12049693 -0.13157265
0.063520476 0.059718974 0.05218845 -0.054816533 -0.032016587 -0.2303135 -0.1014177 -0.031551264
-0.15056986 -0.006852834 -0.16991086 0.10927361 0.07792263 0.05668105 0.09156717 -0.16928904
0.10693086 0.08687197 0.27810362 -0.02560488 0.06631291 0.0647749 0.28763506 -0.0395622
0.20249483 -0.06171037 -0.076037556 0.023831824 0.018570712 -0.0839145 -0.097954184 0.05253796
0.08112272 -0.10547826 -0.034713957 0.14253737 -0.22658616 -0.1431081 -0.025558725 0.21742141
-0.024980996 -0.23969543 0.13512048 0.0069030817 0.04954356 -0.041150644 -0.15311213 -0.062885955
-0.07696103 0.0064936834 -0.010237459 0.017904673 -0.14802474 0.06806247 -0.10802208 0.13317259
-0.0689345 0.13030706 -0.06904123 0.12211814 0.08729373 -0.2602142 -0.17208003 0.17507641
-0.029732082 0.059465017 -0.23891059 0.10183506 0.028852457 0.23549822 0.036327716 0.09648344
0.23686525 -0.42948246 0.097481646 -0.2438064 -0.100610696 0.22623426 0.2886469 0.07685262
-0.27656075 -0.019870004 0.019744381 0.10653065 0.09438356 0.06034233 0.026947461 -0.023923084
-0.09228299 -0.07462608 0.24444398 -0.13860661 -0.18637636 0.12819941 -0.01123643 0.15862542
0.15381819 0.06385891 -0.14873904 -0.066474855 -0.09516603 0.00895781 0.14715777 0.22991848
-0.005932294 0.055852856 0.1389296 -0.11585474 -0.15058874 -0.08093826 0.20168796 0.009152482
0.2738938 -0.023237688 -0.041961893 -0.06082556 0.03006237 0.19847226 -0.06619331 0.36971238
0.08611928 0.019362008 0.19012776 0.20308504 0.0003116396 -0.013683244 0.034234684 -0.053019684
0.061937157 -0.018785356 -0.0781851 0.071886286 -0.11088339 -0.13786298 0.059232462 0.18277319
0.09341384 -0.12238203 -0.1988709 0.06385483 0.04372286 -0.060954355 0.18363227 0.19116113
0.1962267 -0.043606907 0.10246405 0.026516613 -0.03087205 0.16710895 -0.07517876 -0.2748235
-0.26755095 -0.12503663 0.11639407 -0.20338826 -0.07319203 -0.07091484 0.2141797 -0.045401763
0.20833345 -0.16443864 0.08237462 0.052122872 -0.1467366 0.028650416 -0.008462426 0.14008151
-0.013486978 0.054152764 0.19165544 -0.012985195 0.009165199 -0.090699874 -0.024559235 0.031672962
-0.042676948 0.006342836 -0.0019450833 -0.093376815 -0.13686027 -0.004700908 0.0071119703 -0.086985864
-0.15485081 0.02324757 -0.116723776 -0.100236975 -0.17444317 0.14450258 0.11091147 0.03418786
-0.060170945 -0.1412866 0.092527725 0.040028047 0.012393626 0.22543056 0.16914557 0.03978328
-0.16777302 0.010579082 0.030314721 0.006387804 0.11858299 -0.06430719 0.024566371 0.13930827
-0.27107093 -0.063169934 -0.0309306 -0.20289926 0.22013293 0.078873724 -0.13785586 0.13258588
0.20828816 -0.19032176 0.27904013 -0.075766146 0.027909027 0.0035734249 -0.035472408 0.05515231
00000000: b9c7 fb3d edac bf3d e1e1 27be e52e 443d
00000010: 0f90 483e 4ff5 493e d0f7 9fbd e2a5 9f3c
00000020: e19b 683e 654b c1bd 5683 26be 1869 54bc
00000030: 20f5 3b3e 1b2d 123d d245 5ebd 3c38 a9bd
00000040: 3bcb ac3d 0765 2f3c 5bb2 a6bd 44f0 c13c
00000050: 1f2e db3c dab2 14be cc61 573e 8c3c 993d
00000060: f3f6 123c abbf ed3d 75d6 ae3d 2147 72bd
00000070: deaf be3c 3d41 873c 18c7 f63d fbba 06be
00000080: 0617 823d e29b 743d 8ec3 553d 4d87 60bd
00000090: d323 03bd 4dd7 6bbe 15b4 cfbd e63b 01bd
000000a0: fc2e 1abe bd8d e0bb 1dfd 2dbe d8ca df3d
000000b0: e695 9f3d 642a 683d 9287 bb3d 1b5a 2dbe
000000c0: 91fe da3d eee9 b13d 9963 8e3e 53c1 d1bc
000000d0: 10cf 873d b4a8 843d e744 933e f90b 22bd
000000e0: ce5a 4f3e 03c4 7cbd 94b9 9bbd f53a c33c
000000f0: 9b21 983c 5edb abbd 349c c8bd 0b32 573d
00000100: ab23 a63d fc04 d8bd 3930 0ebd 51f5 113e
00000110: 3406 68be ee8a 12be 8860 d1bc b8a3 5e3e
00000120: f2a4 ccbc b872 75be 065d 0a3e 3f33 e23b
00000130: 30ee 4a3d 948d 28bd 6dc9 1cbe 5aca 80bd
00000140: bf9d 9dbd f7c8 d43b 04bb 27bc d2ac 923c
00000150: cc93 17be 5664 8b3d ae3a ddbd 655e 083e
00000160: 882d 8dbd 376f 053e 7d65 8dbd 1319 fa3d
00000170: 0ec7 b23d cc3a 85be bf35 30be 3b47 333e
00000180: b290 f3bc 9791 733d faa4 74be e68e d03d
00000190: fd5b ec3c 7226 713e 5fcc 143d 1c99 c53d
000001a0: ce8c 723e 20e5 dbbe 75a4 c73d 63a8 79be
000001b0: fb0c cebd f4a9 673e 87c9 933e e864 9d3d
000001c0: 5f99 8dbe 6bc6 a2bc f8be a13c be2c da3d
000001d0: 2b4c c13d 8529 773d ecc0 dc3c 58fa c3bc
000001e0: ddfe bcbd 8fd5 98bd 864f 7a3e e4ee 0dbe
000001f0: 72d9 3ebe b546 033e 0119 38bc b46e 223e
00000200: 8482 1d3e 76c8 823d 0c4f 18be f823 88bd
00000210: 68e6 c2bd c7c3 123c 87b0 163e c06f 6b3e
00000220: b063 c2bb f7c5 643d 9043 0e3e 4045 edbd
00000230: ef33 1abe f5c2 a5bd 4a87 4e3e 4bf4 153c
00000240: cf3b 8c3e f75c bebc 3ce0 2bbd 3924 79bd
00000250: 5c45 f63c 503c 4b3e 5c90 87bd f14a bd3e
00000260: 4e5f b03d 139d 9e3c dab0 423e 86f5 4f3e
00000270: 8f63 a339 af2f 60bc ab39 0c3d 2b2b 59bd
00000280: d1b1 7d3d bfe3 99bc 821f a0bd 1e39 933d
00000290: d516 e3bd f42b 0dbe bd9d 723d e528 3b3e
000002a0: c14f bf3d 6ea3 fabd d0a4 4bbe 52c6 823d
000002b0: be16 333d 46ab 79bd 190a 3c3e bebf 433e
000002c0: a7ef 483e 289d 32bd acd8 d13d 5e39 d93c
000002d0: 62e7 fcbc 9c1e 2b3e 52f7 99bd aab5 8cbe
000002e0: 70fc 88be 9a09 00be 0460 ee3d 0345 50be
000002f0: b4e5 95bd cd3b 91bd ec51 5b3e 33f7 39bd
00000300: 5d55 553e 9a62 28be 06b4 a83d cb7e 553d
00000310: 1f42 16be 47b4 ea3c fda5 0abc 8771 0f3e
00000320: 7cf8 5cbc 4acf 5d3d 5341 443e dbbf 54bc
00000330: a129 163c dbc0 b9bd 7330 c9bc 82bb 013d
00000340: 06ce 2ebd 91d7 cf3b 2af2 feba 583c bfbd
00000350: 1925 0cbe 130a 9abb 880b e93b a525 b2bd
00000360: 3691 1ebe b071 be3c e00c efbd 0b49 cdbd
00000370: 3ba1 32be 7cf8 133e 8e25 e33d 9208 0c3d
00000380: cf75 76bd 6fad 10be 2d7f bd3d 73f4 233d
00000390: a30e 4b3c 45d7 663e 7f34 2d3e cbf3 223d
000003a0: b1cc 2bbe e353 2d3c 9456 f83c c950 d13b
000003b0: a3db f23d 7db3 83bd 6a3f c93c d4a6 0e3e
000003c0: cfc9 8abe 3d5f 81bd 2b62 fdbc d3c4 4fbe
000003d0: 876a 613e 8c88 a13d 162a 0dbe 98c4 073e
000003e0: 7e49 553e b5e3 42be 59de 8e3e 482b 9bbd
000003f0: 79a1 e43c 1f30 6a3b 844b 11bd 63e7 613d

_module.lstm_layer.bias_hh_l0 f4 [400]
0.13064946 -0.19413118 0.12703581 -0.15952945 -0.12617767 0.047328748 -0.1300423 -0.26919165
-0.05381117 -0.21161829 -0.059537675 0.034651674 -0.034686014 -0.13395089 -0.08150221 0.1651124
-0.045895416 0.08551653 -0.032396473 -0.15752432 -0.016180081 -0.14189816 0.26057905 -0.038915955
0.11478168 0.16344066 -0.023522878 -0.03563809 -0.11944121 0.057547554 -0.0061258627 -0.33212265
-0.0658515 0.06893044 0.14594507 0.06351673 0.11792814 -0.00032218843 -0.00040171767 0.13997722
0.15039536 0.09421726 0.0277735 -0.1525978 -0.05705345 0.22928596 0.1515902 0.18005253
0.022291522 -0.040302124 0.09569608 -0.19736855 -0.13210009 -0.018481866 -0.027959658 0.20561129
-0.036176827 -0.045511387 -0.1279716 0.030378075 -0.26685405 -0.00084949995 -0.077812366 0.13173904
-0.12880455 -0.21997735 0.01694244 -0.088562675 -0.21278606 -0.027237747 -0.31713763 -0.12977488
0.23613483 -0.031536497 -0.05553816 -0.040430594 0.08564858 0.03394508 -0.1292956 -0.07200276
-0.09962487 0.11151259 -0.101639345 0.23748095 -0.1458173 -0.19201832 0.2929409 0.09628343
-0.067300685 0.18736531 -0.06228767 -0.33402464 -0.044879287 0.049661417 -0.17543282 -0.1965538
0.05319436 0.21422851 -0.05204191 -0.052401997 -0.085760124 0.03533023 -0.14424744 -0.014976834
0.07218892 0.115061976 0.11177661 -0.23943567 0.051517352 -0.03365164 -0.28013963 -0.1932363
0.20314614 -0.04186052 -0.17771035 0.16188808 0.055362158 0.03932587 -0.25958914 0.28140584
0.025368959 -0.4084224 -0.24117674 0.016203366 0.12458992 -0.04909251 0.06899439 0.11886952
0.08658955 0.037571788 -0.04453886 -0.079064645 0.03153156 0.5321491 -0.0072457 -0.16671558
0.0926924 -0.13234767 -0.2267534 0.0088743055 0.24077031 -0.26898858 -0.19246343 0.056189723
-0.098818205 0.06043556 0.26837245 0.11312691 -0.120110765 0.1663367 0.0023730816 0.13838013
0.031943154 -0.004331119 0.08954813 -0.07402984 0.006715639 -0.019268159 -0.040932957 -0.10465972
0.18765892 0.26593423 0.2968146 0.10615606 0.3462064 -0.035734013 -0.21135077 -0.23552638
0.052063476 0.07439968 0.023679558 0.06090512 0.06500191 -0.04983591 -0.06341926 0.027526518
-0.024363812 0.061048158 -0.15524608 -0.15100004 0.017912295 0.08226815 0.18717301 0.12228358
-0.18685317 -0.1009853 0.15918268 0.12381308 0.036635034 -0.067489535 -0.038304012 -0.0043804017
0.29533547 -0.19803491 -0.07133922 -0.20142412 -0.010028474 0.19033192 -0.25760293 0.12872677
-0.3132924 -0.2494369 -0.0039468966 -0.035685707 -0.02846602 -0.06458511 -0.08945421 0.05480656
0.14554392 0.14759797 -0.25242683 -0.23865214 -0.072394855 -0.17320597 -0.0070403996 0.1650757
0.091739446 -0.22977571 -0.26396224 -0.29745644 -0.35164893 -0.01999344 0.07731625 -0.13887711
-0.14188756 -0.095468946 0.2728569 0.18487003 0.100589715 -0.10898938 -0.0032810494 0.24572624
-0.0824441 0.03809087 0.16476962 -0.16157313 -0.2724912 -0.15587066 -0.08163998 -0.27300298
-0.2785284 -0.08068233 -0.103008054 0.36560154 -0.005374234 -0.44703165 0.25575528 -0.12671177
-0.19388913 -0.32376894 0.18814497 -0.110761315 0.038479745 0.17129551 -0.2225777 0.32362345
00000000: f9c8 053e 53ca 46be ad15 023e b05b 23be
00000010: b834 01be cadb 413d cf29 05be 7dd3 89be
00000020: 1a69 5cbd 77b2 58be c7dd 73bd eaee 0d3d
00000030: ec12 0ebd 6c2a 09be a1ea a6bd 3a13 293e
00000040: d5fc 3bbd 4a23 af3d 2ab2 04bd 0e4e 21be
00000050: 178c 84bc c04d 11be 9e6a 853e 5666 1fbd
00000060: a812 eb3d fd5c 273e 0db3 c0bc 3ff9 11bd
00000070: 989d f4bd fcb6 6b3d 76bb c8bb fb0b aabe
00000080: 27dd 86bd 672b 8d3d a072 153e 0f15 823d
00000090: 4f84 f13d 66eb a8b9 a29d d2b9 3056 0f3e
000000a0: 3e01 1a3e fbf4 c03d 4085 e33c 9942 1cbe
000000b0: e1b0 69bd f0c9 6a3e 763a 1b3e b15f 383e
000000c0: b69c b63c d713 25bd 4efc c33d fb1a 4abe
000000d0: 3f45 07be 4867 97bc a70b e5bc c48b 523e
000000e0: 272e 14bd 266a 3abd fd0a 03be 71db f83c
000000f0: 18a1 88be fab0 5eba 175c 9fbd 99e6 063e
00000100: 57e5 03be be41 61be dfca 8a3c 5960 b5bd
00000110: 97e4 59be b221 dfbc dd5f a2be b5e3 04be
00000120: 54cd 713e 6a2c 01bd fb7b 63bd 8d9a 25bd
00000130: 8668 af3d ff09 0b3d 1166 04be 2f76 93bd
00000140: 2008 ccbd b660 e43d 4a28 d0bd 352e 733e
00000150: 2151 15be 73a0 44be 5afc 953e 3f30 c53d
00000160: f1d4 89bd b1dc 3f3e 5b21 7fbd 4705 abbe
00000170: 58d3 37bd c569 4b3d a9a4 33be 6645 49be
00000180: 54e2 593d b85e 5b3e e629 55bd 7aa3 56bd
00000190: 01a3 afbd 6eb6 103d 9ab5 13be 6561 75bc
000001a0: c9d7 933d 9da5 eb3d 23eb e43d a02e 75be
000001b0: dc03 533d 4dd6 09bd 766e 8fbe bddf 45be
000001c0: 8b05 503e f075 2bbd b4f9 35be fdc5 253e
000001d0: 6ec3 623d 2a14 213d dee8 84be 6d14 903e
000001e0: 90d2 cf3c be1c d1be 09f7 76be ecbc 843c
000001f0: 0029 ff3d 3a15 49bd ee4c 8d3d dd71 f33d
00000200: dd55 b13d e0e4 193d 616e 36bd a5ec a1bd
00000210: 3d27 013d ec3a 083f 566d edbb 7db7 2abe
00000220: 83d5 bd3d 2686 07be 0b32 68be 8965 113c
00000230: 7e8c 763e dfb8 89be 2215 45be 3227 663d
00000240: 3361 cabd 478b 773d 1d68 893e 15af e73d
00000250: a2fc f5bd 2b54 2a3e b485 1b3b 85b3 0d3e
00000260: d3d6 023d 0fec 8dbb 0365 b73d f59c 97bd
00000270: dd0e dc3b 42d8 9dbc 51a9 27bd d657 d6bd
00000280: a929 403e 8828 883e 15f8 973e 5968 d93d
00000290: f741 b13e d45d 12bd 566c 58be d42d 71be
000002a0: 8340 553d dc5e 983d a2fb c13c a677 793d
000002b0: b91f 853d bd20 4cbd f5e1 81bd 4b7f e13c
000002c0: 9e96 c7bc a20d 7a3d d4f8 1ebe c19f 1abe
000002d0: cebc 923c 347c a83d 48aa 3f3e d06f fa3d
000002e0: 7056 3fbe 62d1 cebd c900 233e b691 fd3d
000002f0: 9e0e 163d f437 8abd abe4 1cbd 7989 8fbb
00000300: 3636 973e aac9 4abe 4c1a 92bd 2042 4ebe
00000310: 784e 24bc 5fe6 423e 88e4 83be f3d0 033e
00000320: dd67 a0be 636c 7fbe f854 81bb 2d2b 12bd
00000330: 9231 e9bc 3345 84bd c533 b7bd d87c 603d
00000340: 7709 153e ec23 173e 173e 81be 3a61 74be
00000350: c143 94bd e85c 31be 27b3 e6bb 9b09 293e
00000360: e4e1 bb3d 534a 6bbe 0f26 87be 364c 98be
00000370: 540b b4be 48c9 a3bc fb57 9e3d cd35 0ebe
00000380: f94a 11be 3985 c3bd e6b3 8b3e 924e 3d3e
00000390: fb01 ce3d d335 dfbd e006 57bb a99f 7b3e
000003a0: 74d8 a8bd 2c05 1c3d 5eb9 283e 6d73 25be
000003b0: f783 8bbe 8f9c 1fbe dd32 a7bd 0cc7 8bbe
000003c0: 469b 8ebe c73c a5bd e3f5 d2bd 2030 bb3e
000003d0: 581a b0bb 55e1 e4be 5bf2 823e bbc0 01be
000003e0: df8a 46be 0bc5 a5be 13a9 403e d4d6 e2bd
000003f0: f09c 1d3d 1768 2f3e 69eb 63be f9b1 a53e

_module.lstm_layer.l0.ih.weight f4 [400, 100]
-0.21694426 -0.094854124 0.21216406 0.15812571 -0.091651626 -0.17957827 0.048642684 0.043477222
-0.06303821 -0.031623065 -0.11437177 0.00866363 0.28656897 0.26365563 -0.02640702 -0.057822514
-0.08969669 -0.047095116 -0.009106319 -0.07494526 0.27509287 0.18067129 -0.12384722 -0.041190945
-0.035980392 -0.015746001 -0.081860445 -0.113368265 -0.15820582 0.13812721 -0.06581339 0.24857317
0.10298164 0.017112888 -0.109109074 -0.1520107 0.12591684 -0.10720244 -0.032474685 -0.12264867
0.10436841 0.07993198 0.008184177 -0.07821382 0.040776473 -0.16033752 -0.14395437 -0.021287274
-0.0584753 -0.03598929 -0.008071171 0.0156314 -0.085088715 -0.0696808 -0.3318423 -0.12604398
0.17474893 0.30742615 -0.005417934 0.09540404 -0.1811742 -0.12054543 -0.057273068 0.03309518
0.11522617 -0.2099062 0.29108867 0.062378448 0.035565518 -0.19667879 -0.0302918 -0.015397281
0.042246446 -0.06559787 -0.08782227 0.061481394 0.019027192 0.07027583 0.050465137 0.065109335
-0.023711566 0.023176054 -0.27150306 -0.07130193 0.30615398 -0.10951388 0.17302874 -0.0993501
0.079963595 0.16263022 -0.3616299 -0.014485983 -0.00016246314 0.039744344 0.16890043 -0.19806392
0.19505244 -0.23800041 0.080751315 0.05567217 0.29974896 -0.027864782 -0.13148932 -0.0790875
0.0116895735 0.0924486 0.0726646 0.15123308 -0.05220352 0.020985099 -0.04905965 0.12857382
0.047829587 0.06999282 -0.007565252 -0.24187356 -0.1593749 -0.0976203 -0.25210318 -0.088548265
0.123848125 -0.022349311 0.06569136 0.017302968 -0.069819346 0.07165444 0.06994792 0.08047665
0.22235163 -0.118471004 0.17020166 -0.12360483 -0.23199354 0.054871585 0.07564147 -0.13297237
-0.25402245 0.198621 -0.12311997 0.3396337 -0.17594911 -0.057076152 0.061235055 0.047592238
-0.092601605 -0.40988398 0.2121675 0.051916342 -0.17117763 0.04488302 -0.100588314 -0.19608288
0.3780241 -0.12971969 0.06431999 0.043255847 0.088332966 0.2070244 -0.14008912 -0.026851581
0.008047407 -0.113011494 0.13412195 0.11829816 0.1105242 0.11692945 -0.15338354 0.13991831
0.13739747 0.023312226 -0.15940243 0.1821349 0.17969356 -0.036957264 -0.21842203 -0.12815088
-0.13812888 -0.08272611 0.03888803 0.15691449 -0.16996033 -0.06558098 0.07428836 0.08353336
-0.15719628 0.022017017 0.19305654 -0.028713295 0.06853142 -0.23933041 0.13359576 0.07176633
0.15609954 0.15016784 -0.17895007 -0.0304773 0.11978227 -0.0718104 0.018136097 0.047205683
0.15247387 -0.07975105 0.07661727 0.0438236 0.0053503113 0.041683435 -0.21584985 -0.00095133
-0.08154848 0.12774114 0.04169166 0.1706628 0.14642301 0.030487884 -0.12442265 -0.21021765
0.08650301 -0.10941257 -0.27158728 -0.22321612 0.09001302 0.04359589 -0.042517617 0.024218636
-0.06482959 0.23645017 0.04991212 -0.12719646 0.12253717 0.17174006 -0.19783834 0.070687465
-0.035391778 0.11947806 -0.08263142 0.17886662 0.082386695 0.04893429 -0.038147762 -0.033244114
-0.099828415 0.019723332 0.038212016 0.042381994 -0.04439209 0.08609597 -0.10248652 0.13399413
0.207022 0.05541322 -0.16062094 -0.05874137 0.26223305 0.09297457 0.08352288 -0.004516701
00000000: a326 5ebe e142 c2bd 8941 593e b5eb 213e
00000010: d9b3 bbbd 5ee3 37be 8d3d 473d 2c15 323d
00000020: 2d1a 81bd 3087 01bd bf3b eabd e6f1 0d3c
00000030: 2bb9 923e dffd 863e 8953 d8bc 4dd7 6cbd
00000040: e6b2 b7bd cfe6 40bd ac32 15bc e77c 99bd
00000050: f9d8 8c3e e501 393e 9ca3 fdbd d6b7 28bd
00000060: 2d60 13bd c2fd 80bc 73a6 a7bd 9f2d e8bd
00000070: b500 22be 3871 0d3e 2cc9 86bd f789 7e3e
00000080: 0ae8 d23d 5430 8c3c 9474 dfbd b1a8 1bbe
00000090: 58f0 003e f48c dbbd 2d04 05bd 3a2f fbbd
000000a0: 1bbf d53d 61b3 a33d ed16 063c 912e a0bd
000000b0: 3b05 273d 852f 24be c668 13be a662 aebc
000000c0: cc83 6fbd 8169 13bd f23c 04bc 6c0d 803c
000000d0: fe42 aebd cfb4 8ebd 3ce7 a9be ac11 01be
000000e0: 62f1 323e f666 9d3e ed88 b1bb 3163 c33d
000000f0: bb85 39be 86e0 f6bd 2a97 6abd d08e 073d
00000100: b3fb eb3d a7f1 56be 9309 953e 8b80 7f3d
00000110: 26ad 113d 2a66 49be 8226 f8bc e144 7cbc
00000120: 9c0a 2d3d 2d58 86bd 2adc b3bd ead3 7b3d
00000130: eade 9b3c c6ec 8f3d 88b4 4e3d 0b58 853d
00000140: c23e c2bc b5db bd3c 7302 8bbe bf06 92bd
00000150: 37c0 9c3e d048 e0bd 722e 313e 1178 cbbd
00000160: f4c3 a33d 8988 263e 8e27 b9be 9e56 6dbc
00000170: de5a 2ab9 f7ca 223d 3cf4 2c3e 45d1 4abe
00000180: d4bb 473e 61b6 73be f260 a53d 8008 643d
00000190: b278 993e af44 e4bc 23a5 06be a1f8 a1bd
000001a0: a085 3f3c b155 bd3d 2ed1 943d d8dc 1a3e
000001b0: 5cd3 55bd f1e8 ab3c c6f2 48bd dba8 033e
000001c0: f5e8 433d 6558 8f3d efe5 f7bb b4ad 77be
000001d0: 2c33 23be 27ed c7bd ab13 81be cb58 b5bd
000001e0: 16a4 fd3d e715 b7bc 3189 863d f4be 8d3c
000001f0: 72fd 8ebd 90bf 923d db40 8f3d f1d0 a43d
00000200: 25b0 633e eda0 f2bd 5849 2e3e 8724 fdbd
00000210: b78f 6dbe 07c1 603d eae9 9a3d e929 08be
00000220: 3b0f 82be 4e63 4b3e 5326 fcbd 78e4 ad3e
00000230: 012c 34be afc8 69bd 9cd1 7a3d 14f0 423d
00000240: e9a5 bdbd 50dc d1be 7042 593e 3ba6 543d
00000250: 3049 2fbe 42d7 373d 3f01 cebd f3c9 48be
00000260: 608c c13e 3dd5 04be 33ba 833d 0b2d 313d
00000270: eae7 b43d 34fe 533e 8673 0fbe d9f7 dbbc
00000280: 45d9 033c 9272 e7bd 4457 093e 4e46 f23d
00000290: 835a e23d b578 ef3d 9310 1dbe bf46 0f3e
000002a0: ecb1 0c3e 48f9 be3c 643a 23be 9281 3a3e
000002b0: 9701 383e 8060 17bd 06aa 5fbe fc39 03be
000002c0: a871 0dbe 4f6c a9bd 0e49 1f3d 31ae 203e
000002d0: 150a 2ebe 524f 86bd 7f24 983d 8a13 ab3d
000002e0: 10f8 20be 085d b43c 9db0 453e 2538 ebbc
000002f0: 335a 8c3d 0813 75be 54cd 083e 3afa 923d
00000300: 8fd8 1f3e 99c5 193e b03e 37be 88ab f9bc
00000310: 6850 f53d 5511 93bd 2792 943c bf5a 413d
00000320: 1c22 1c3e 8554 a3bd 84e9 9c3d 6080 333d
00000330: aa51 af3b 40bc 2a3d be07 5dbe ad62 79ba
00000340: e402 a7bd 93ce 023e e0c4 2a3d 3bc2 2e3e
00000350: eaef 153e bac1 f93c 4dd1 febd 4c43 57be
00000360: 7d28 b13d b313 e0bd 7d0d 8bbe c492 64be
00000370: bf58 b83d 9b91 323d f426 2ebd 2966 c63c
00000380: 60c5 84bd fe1f 723e a770 4c3d ca3f 02be
00000390: c5f4 fa3d a0dc 2f3e 2296 4abe 97c4 903d
000003a0: f8f6 10bd eab0 f43d a93a a9bd d028 373e
000003b0: 5bba a83d 526f 483d d440 1cbd fb2a 08bd
000003c0: d772 ccbd d392 a13c 3484 1c3d be98 2d3d
000003d0: 7bd4 35bd 1553 b03d 74e4 d1bd c235 093e
000003e0: 93fd 533e f9f8 623d d179 24be ca9a 70bd
000003f0: 6943 863e 7469 be3d 0b0e ab3d d600 94bb

_module.lstm_layer.l0.ih.bias f4 [400]
-0.17090559 0.1989753 0.033917997 -0.36869085 0.14336951 -0.10287217 -0.07937784 -0.071521915
-0.0016011684 0.101928376 0.058781244 0.07452665 -0.082677536 -0.08514982 -0.12936684 0.07489194
-0.15528907 -0.0142973345 0.11777673 -0.042874835 -0.03765744 -0.02087472 0.16709699 0.092826955
-0.12698989 -0.110354565 0.078543365 -0.02137151 0.10394328 0.20971793 -0.10128594 -0.10294117
0.13437633 -0.13436742 0.23214644 -0.13229339 0.1975931 0.075737946 -0.064999744 9.5913885e-05
-0.027686503 0.11406395 0.20374152 -0.11731897 0.06809906 0.20616324 -0.13804471 0.048335135
0.052136622 0.19890074 -0.059835985 -0.10645582 0.039609507 0.025948098 -0.23768306 -0.110311575
0.15222524 -0.030648999 -0.03332749 0.31097656 -0.025342537 0.089719884 -0.05318405 -0.15681505
0.37969458 -0.22364716 -0.07096377 0.011677217 -0.05743346 -0.13090453 0.07191444 -0.08326887
0.16932614 0.27510864 0.043789186 -0.03783785 0.012964775 0.1945752 0.20269863 -0.13706662
-0.26356876 0.10752532 -0.0055154953 -0.11776546 0.11282153 -0.11834302 -0.18456309 -0.09801641
0.18207088 -0.060257696 -0.2784211 -0.0936621 -0.014667476 -0.0062626605 -0.06833491 -0.0069595394
-0.10494251 0.20527998 0.24222113 0.049308274 0.0044014356 0.03656186 -0.40242627 0.24744304
-0.06034406 -0.081060976 -0.14173299 0.014222797 0.14376166 -0.12838596 0.0785434 0.022890434
-0.117562465 -0.012356855 0.26021507 0.031983927 -0.101394035 0.019593796 -0.20490555 0.1240078
0.3139844 0.051756293 -0.002359252 0.026256919 0.17132635 -0.15428247 -0.021509625 0.16155533
0.24602848 -1.3231219e-05 0.052355222 -0.22844093 -0.030051176 0.5764603 -0.008659706 0.03610742
-0.29786864 0.18854968 0.021484915 0.13992424 -0.09944666 -0.110382505 0.050764374 0.09896035
-0.20201296 0.24058573 -0.06889545 -0.020404162 -0.19639952 0.14779986 0.13129215 0.1326946
0.050281186 0.09301165 0.09350635 -0.0043663043 0.0318917 -0.13143152 0.063839205 0.02317586
-0.13423818 0.024080375 -0.06983224 -0.12510909 0.13953334 -0.07875661 0.024104267 0.09508207
0.10845433 -0.11198747 -0.00076022686 -0.13567354 -0.060809538 -0.0015519959 0.064876474 -0.00024172361
-0.1332051 -0.061018437 0.13876835 -0.03902529 0.040635765 0.049609352 -0.18078691 0.08759533
0.02937641 0.10342185 0.055898614 0.16620253 -0.055683147 -0.07590831 0.14830378 0.14118534
-0.07526346 0.06416895 -0.027379557 -0.04073218 0.04286298 -0.04177351 0.09993598 -0.17315723
-0.27846062 0.0031484596 0.08363301 0.02240832 -0.18034194 -0.12530136 0.20509243 0.17640236
-0.12020514 -0.06990966 -0.22926337 -0.29857796 -0.19984835 -0.14447233 0.04050107 0.21440208
0.055954296 -0.24033366 0.22765829 -0.07898425 -0.25342074 -0.27123407 -0.0041022305 -0.25848916
-0.101994775 -0.03769131 0.028230479 0.22308557 0.025006464 0.09687742 0.2109836 0.13902093
0.16842811 -0.013987375 0.1703783 -0.18010868 -0.094569124 -0.072924495 0.0784927 -0.16151325
-0.254927 -0.07559614 0.19421408 0.06117823 0.048750952 -0.45201442 -0.021813734 -0.16937746
0.08611516 0.15726769 0.11345872 -0.10646519 -0.0964759 0.008718076 -0.16699295 0.044463042
00000000: e001 2fbe 2ec0 4b3e 99ed 0a3d 0cc5 bcbe
00000010: 75cf 123e a5ae d2bd d990 a2bd 157a 92bd
00000020: 4cde d1ba d3bf d03d 9ac4 703d 6ea1 983d
00000030: d752 a9bd 0763 aebd be78 04be f260 993d
00000040: 1904 1fbe 5e3f 6abc ed34 f13d 869d 2fbd
00000050: b03e 1abd 7601 abbc 791b 2b3e 0f1c be3d
00000060: a309 02be 9301 e2bd 58db a03d 4e13 afbc
00000070: 37e0 d43d 4cc0 563e 016f cfbd d2d2 d2bd
00000080: f399 093e 9d97 09be ccb7 6d3e eb77 07be
00000090: d855 4a3e 7f1c 9b3d 961e 85bd 6025 c938
000000a0: cece e2bc 5c9a e93d 9ea1 503e ee44 f0bd
000000b0: 8577 8b3d 751c 533e 985b 0dbe 10fb 453d
000000c0: 368d 553d a3ac 4b3e 9416 75bd 8205 dabd
000000d0: 943d 223d 1b91 d43c 3063 73be 09eb e1bd
000000e0: efe0 1b3e 9c13 fbbc 6882 08bd 5238 9f3e
000000f0: 279b cfbc 0fbf b73d 85d7 59bd 2094 20be
00000100: 5467 c23e c303 65be 7455 91bd cc51 3f3c
00000110: 593f 6bbd d60b 06be e147 933d df88 aabd
00000120: d563 2d3e 0adb 8c3e 4a5c 333d ddfb 1abd
00000130: 356a 543c b93e 473e 3b90 4f3e 315b 0cbe
00000140: 7cf2 86be 3c36 dc3d 54bb b4bb 042f f1bd
00000150: f90e e73d d35d f2bd 1bfe 3cbe d4bc c8bd
00000160: ca70 3a3e c6d0 76bd 368d 8ebe ead1 bfbd
00000170: da4f 70bc 0137 cdbb 2cf3 8bbd d90c e4bb
00000180: 19ec d6bd ea34 523e d108 783e 79f7 493d
00000190: eb39 903b e4c1 153d d10a cebe b561 7d3e
000001a0: 552b 77bd 4c03 a6bd 7422 11be bc06 693c
000001b0: 4236 133e 9c77 03be 5ddb a03d b884 bb3c
000001c0: 97c4 f0bd 6874 4abc e93a 853e 9401 033d
000001d0: ada7 cfbd 2b83 a03c c3d2 51be cdf7 fd3d
000001e0: 90c2 a03e 68fe 533d ae9d 1abb c018 d73c
000001f0: 2d70 2f3e 39fc 1dbe f434 b0bc c36e 253e
00000200: e4ee 7b3e a7fb 5db7 6e72 563d 6bec 69be
00000210: e22d f6bc e792 133f 71e1 0dbc 60e5 133d
00000220: 3d82 98be 2b13 413e 2201 b03c 4d48 0f3e
00000230: b1aa cbbd 3910 e2bd 4eee 4f3d b9ab ca3d
00000240: 7cdc 4ebe 1b5c 763e 0f19 8dbd a126 a7bc
00000250: f51c 49be d958 173e 7371 063e 18e1 073e
00000260: a5f3 4d3d e47c be3d 4280 bf3d 3713 8fbb
00000270: dfa0 023d fc95 06be 21be 823d 4ddb bd3c
00000280: bc75 09be 3544 c53c 3504 8fbd 991c 00be
00000290: d4e1 0e3e 254b a1bd 5076 c53c 63ba c23d
000002a0: 4e1d de3d b059 e5bd f649 47ba 01ee 0abe
000002b0: 6c13 79bd 576c cbba f5dd 843d 3077 7db9
000002c0: eb66 08be 78ee 79bd 4a19 0e3e fcd8 1fbd
000002d0: b071 263d 2d33 4b3d 3420 39be 2e65 b33d
000002e0: cca6 f03c d6ce d33d f2f5 643d ff30 2a3e
000002f0: 0314 64bd d175 9bbd f2dc 173e e492 103e
00000300: bb23 9abd 036b 833d 184b e0bc c9d6 26bd
00000310: 1891 2f3d b31a 2bbd 3cab cc3d 2150 31be
00000320: 6492 8ebe 6356 4e3b c947 ab3d a791 b73c
00000330: 8fab 38be 004f 00be c003 523e d2a2 343e
00000340: 1d2e f6bd cc2c 8fbd 04c4 6abe 36df 98be
00000350: 0ca5 4cbe 8ef0 13be 73e4 253d 388c 5b3e
00000360: 5530 653d 071a 76be 411f 693e 7fc2 a1bd
00000370: 5dc0 81be 31df 8abe 016c 86bb b158 84be
00000380: a3e2 d0bd 3462 1abd 9b43 e73c 8b70 643e
00000390: 5bda cc3c ab67 c63d 160c 583e 815b 0e3e
000003a0: 6b78 2c3e 4e2b 65bc a677 2e3e 696e 38be
000003b0: 75ad c1bd 7059 95bd c8c0 a03d bb63 25be
000003c0: cb85 82be 26d2 9abd 0ee0 463e 0696 7a3d
000003d0: 14af 473d 6f6e e7be b7b2 b2bc 4971 2dbe
000003e0: 255d b03d c80a 213e 0c5d e83d 6c0a dabd
000003f0: 2895 c5bd 43d6 0e3c 3300 2bbe e11e 363d

_module.lstm_layer.l0.hh.weight f4 [400, 100]
0.122939534 0.09359155 -0.1639476 0.047896285 0.19586204 0.19722484 -0.07810938 0.019488279
0.22715713 -0.094382085 -0.16261038 -0.012964509 0.18355227 0.035687547 -0.054265805 -0.08262679
0.08437201 0.010705239 -0.08139487 0.023674138 0.02675539 -0.14521351 0.210334 0.074822515
0.00897001 0.116088234 0.08536998 -0.059149865 0.02327722 0.0165106 0.12049693 -0.13157265
0.063520476 0.059718974 0.05218845 -0.054816533 -0.032016587 -0.2303135 -0.1014177 -0.031551264
-0.15056986 -0.006852834 -0.16991086 0.10927361 0.07792263 0.05668105 0.09156717 -0.16928904
0.10693086 0.08687197 0.27810362 -0.02560488 0.06631291 0.0647749 0.28763506 -0.0395622
0.20249483 -0.06171037 -0.076037556 0.023831824 0.018570712 -0.0839145 -0.097954184 0.05253796
0.08112272 -0.10547826 -0.034713957 0.14253737 -0.22658616 -0.1431081 -0.025558725 0.21742141
-0.024980996 -0.23969543 0.13512048 0.0069030817 0.04954356 -0.041150644 -0.15311213 -0.062885955
-0.07696103 0.0064936834 -0.010237459 0.017904673 -0.14802474 0.06806247 -0.10802208 0.13317259
-0.0689345 0.13030706 -0.06904123 0.12211814 0.08729373 -0.2602142 -0.17208003 0.17507641
-0.029732082 0.059465017 -0.23891059 0.10183506 0.028852457 0.23549822 0.036327716 0.09648344
0.23686525 -0.42948246 0.097481646 -0.2438064 -0.100610696 0.22623426 0.2886469 0.07685262
-0.27656075 -0.019870004 0.019744381 0.10653065 0.09438356 0.06034233 0.026947461 -0.023923084
-0.09228299 -0.07462608 0.24444398 -0.13860661 -0.18637636 0.12819941 -0.01123643 0.15862542
0.15381819 0.06385891 -0.14873904 -0.066474855 -0.09516603 0.00895781 0.14715777 0.22991848
-0.005932294 0.055852856 0.1389296 -0.11585474 -0.15058874 -0.08093826 0.20168796 0.009152482
0.2738938 -0.023237688 -0.041961893 -0.06082556 0.03006237 0.19847226 -0.06619331 0.36971238
0.08611928 0.019362008 0.19012776 0.20308504 0.0003116396 -0.013683244 0.034234684 -0.053019684
0.061937157 -0.018785356 -0.0781851 0.071886286 -0.11088339 -0.13786298 0.059232462 0.18277319
0.09341384 -0.12238203 -0.1988709 0.06385483 0.04372286 -0.060954355 0.18363227 0.19116113
0.1962267 -0.043606907 0.10246405 0.026516613 -0.03087205 0.16710895 -0.07517876 -0.2748235
-0.26755095 -0.12503663 0.11639407 -0.20338826 -0.07319203 -0.07091484 0.2141797 -0.045401763
0.20833345 -0.16443864 0.08237462 0.052122872 -0.1467366 0.028650416 -0.008462426 0.14008151
-0.013486978 0.054152764 0.19165544 -0.012985195 0.009165199 -0.090699874 -0.024559235 0.031672962
-0.042676948 0.006342836 -0.0019450833 -0.093376815 -0.13686027 -0.004700908 0.0071119703 -0.086985864
-0.15485081 0.02324757 -0.116723776 -0.100236975 -0.17444317 0.14450258 0.11091147 0.03418786
-0.060170945 -0.1412866 0.092527725 0.040028047 0.012393626 0.22543056 0.16914557 0.03978328
-0.16777302 0.010579082 0.030314721 0.006387804 0.11858299 -0.06430719 0.024566371 0.13930827
-0.27107093 -0.063169934 -0.0309306 -0.20289926 0.22013293 0.078873724 -0.13785586 0.13258588
0.20828816 -0.19032176 0.27904013 -0.075766146 0.027909027 0.0035734249 -0.035472408 0.05515231
00000000: b9c7 fb3d edac bf3d e1e1 27be e52e 443d
00000010: 0f90 483e 4ff5 493e d0f7 9fbd e2a5 9f3c
00000020: e19b 683e 654b c1bd 5683 26be 1869 54bc
00000030: 20f5 3b3e 1b2d 123d d245 5ebd 3c38 a9bd
00000040: 3bcb ac3d 0765 2f3c 5bb2 a6bd 44f0 c13c
00000050: 1f2e db3c dab2 14be cc61 573e 8c3c 993d
00000060: f3f6 123c abbf ed3d 75d6 ae3d 2147 72bd
00000070: deaf be3c 3d41 873c 18c7 f63d fbba 06be
00000080: 0617 823d e29b 743d 8ec3 553d 4d87 60bd
00000090: d323 03bd 4dd7 6bbe 15b4 cfbd e63b 01bd
000000a0: fc2e 1abe bd8d e0bb 1dfd 2dbe d8ca df3d
000000b0: e695 9f3d 642a 683d 9287 bb3d 1b5a 2dbe
000000c0: 91fe da3d eee9 b13d 9963 8e3e 53c1 d1bc
000000d0: 10cf 873d b4a8 843d e744 933e f90b 22bd
000000e0: ce5a 4f3e 03c4 7cbd 94b9 9bbd f53a c33c
000000f0: 9b21 983c 5edb abbd 349c c8bd 0b32 573d
00000100: ab23 a63d fc04 d8bd 3930 0ebd 51f5 113e
00000110: 3406 68be ee8a 12be 8860 d1bc b8a3 5e3e
00000120: f2a4 ccbc b872 75be 065d 0a3e 3f33 e23b
00000130: 30ee 4a3d 948d 28bd 6dc9 1cbe 5aca 80bd
00000140: bf9d 9dbd f7c8 d43b 04bb 27bc d2ac 923c
00000150: cc93 17be 5664 8b3d ae3a ddbd 655e 083e
00000160: 882d 8dbd 376f 053e 7d65 8dbd 1319 fa3d
00000170: 0ec7 b23d cc3a 85be bf35 30be 3b47 333e
00000180: b290 f3bc 9791 733d faa4 74be e68e d03d
00000190: fd5b ec3c 7226 713e 5fcc 143d 1c99 c53d
000001a0: ce8c 723e 20e5 dbbe 75a4 c73d 63a8 79be
000001b0: fb0c cebd f4a9 673e 87c9 933e e864 9d3d
000001c0: 5f99 8dbe 6bc6 a2bc f8be a13c be2c da3d
000001d0: 2b4c c13d 8529 773d ecc0 dc3c 58fa c3bc
000001e0: ddfe bcbd 8fd5 98bd 864f 7a3e e4ee 0dbe
000001f0: 72d9 3ebe b546 033e 0119 38bc b46e 223e
00000200: 8482 1d3e 76c8 823d 0c4f 18be f823 88bd
00000210: 68e6 c2bd c7c3 123c 87b0 163e c06f 6b3e
00000220: b063 c2bb f7c5 643d 9043 0e3e 4045 edbd
00000230: ef33 1abe f5c2 a5bd 4a87 4e3e 4bf4 153c
00000240: cf3b 8c3e f75c bebc 3ce0 2bbd 3924 79bd
00000250: 5c45 f63c 503c 4b3e 5c90 87bd f14a bd3e
00000260: 4e5f b03d 139d 9e3c dab0 423e 86f5 4f3e
00000270: 8f63 a339 af2f 60bc ab39 0c3d 2b2b 59bd
00000280: d1b1 7d3d bfe3 99bc 821f a0bd 1e39 933d
00000290: d516 e3bd f42b 0dbe bd9d 723d e528 3b3e
000002a0: c14f bf3d 6ea3 fabd d0a4 4bbe 52c6 823d
000002b0: be16 333d 46ab 79bd 190a 3c3e bebf 433e
000002c0: a7ef 483e 289d 32bd acd8 d13d 5e39 d93c
000002d0: 62e7 fcbc 9c1e 2b3e 52f7 99bd aab5 8cbe
000002e0: 70fc 88be 9a09 00be 0460 ee3d 0345 50be
000002f0: b4e5 95bd cd3b 91bd ec51 5b3e 33f7 39bd
00000300: 5d55 553e 9a62 28be 06b4 a83d cb7e 553d
00000310: 1f42 16be 47b4 ea3c fda5 0abc 8771 0f3e
00000320: 7cf8 5cbc 4acf 5d3d 5341 443e dbbf 54bc
00000330: a129 163c dbc0 b9bd 7330 c9bc 82bb 013d
00000340: 06ce 2ebd 91d7 cf3b 2af2 feba 583c bfbd
00000350: 1925 0cbe 130a 9abb 880b e93b a525 b2bd
00000360: 3691 1ebe b071 be3c e00c efbd 0b49 cdbd
00000370: 3ba1 32be 7cf8 133e 8e25 e33d 9208 0c3d
00000380: cf75 76bd 6fad 10be 2d7f bd3d 73f4 233d
00000390: a30e 4b3c 45d7 663e 7f34 2d3e cbf3 223d
000003a0: b1cc 2bbe e353 2d3c 9456 f83c c950 d13b
000003b0: a3db f23d 7db3 83bd 6a3f c93c d4a6 0e3e
000003c0: cfc9 8abe 3d5f 81bd 2b62 fdbc d3c4 4fbe
000003d0: 876a 613e 8c88 a13d 162a 0dbe 98c4 073e
000003e0: 7e49 553e b5e3 42be 59de 8e3e 482b 9bbd
000003f0: 79a1 e43c 1f30 6a3b 844b 11bd 63e7 613d
