DKT/ckpts/dkt/Algebra2005/model.ckpt (torch, 851374 bytes, 11 tensors)

_module.interaction_emb.weight f4 [872, 100]
0	0x3e43f482	0.19136241
1	0x3e71a520	0.23598146
2	0xbf2bc1cb	-0.6709258
3	0xbf69bf22	-0.9130727
4	0x4011b854	2.2768755
5	0x3f820c5b	1.016002
6	0x3ebd3775	0.36956373
7	0x3f1329ec	0.5748584
8	0x3c5273c4	0.0128449835
9	0x3deb9410	0.1150285
10	0x3f0e4332	0.5557128
11	0x3f35a2c1	0.7095147
12	0x3f356b2e	0.7086667
13	0xbf37b8a9	-0.71766144
14	0xbd7ebcf9	-0.062191937
15	0xbeab8f6c	-0.3350786
16	0x3f8b2170	1.0869579
17	0xbfb506bd	-1.4142681
18	0x3f3acaaa	0.7296549
19	0x3f033101	0.5124665
20	0xbf22aa2c	-0.6354091
21	0xbf1f76a8	-0.6229043
22	0xbf1d3d3e	-0.61421573
23	0x3dc41733	0.095747374
24	0x3f875377	1.0572346
25	0x3f491f6f	0.7856359
26	0xbfaafb9f	-1.3358039
27	0x3f81e588	1.0148172
28	0x3f302f4b	0.68822163
29	0x3ee36961	0.44416335
30	0x4007b3de	2.1203532
31	0x3f468dea	0.77560294
32	0xbe400ee0	-0.18755674
33	0xc02a6a33	-2.662732
34	0x3f1b927b	0.60770386
35	0xbf90105b	-1.1254991
36	0x3e9138b3	0.2836357
37	0xbf14a2a8	-0.58060694
38	0x3f324e9a	0.69651186
39	0xbdde8879	-0.10865874
40	0xbf2f8974	-0.6856911
41	0x3fbface4	1.4974637
42	0x3f2e50bf	0.6809196
43	0x3f2f8b5c	0.6857202
44	0xbf82d26f	-1.0220469
45	0xbf90ec4c	-1.1322112
46	0xbe05c509	-0.13063444
47	0x3e46bdf9	0.19408406
48	0xbf1291c5	-0.57253677
49	0x400aad2f	2.1668203
50	0x3fa7eeb5	1.3119723
51	0x3ec7d749	0.39031437
52	0xbfd83eac	-1.6894126
53	0xc00f000e	-2.2343783
54	0xbe07c0e4	-0.13257176
55	0xbd946f82	-0.07247831
56	0xbf84e733	-1.0383056
57	0xbf4ac7ec	-0.79211307
58	0x3f7f4197	0.9970946
59	0x3f6f9364	0.93584275
60	0xbf03a19f	-0.5141849
61	0x3e10fc67	0.14158784
62	0x3fafa10b	1.3721021
63	0xbf33170a	-0.6995703
64	0xbec4e86a	-0.38458568
65	0x3f2be8b6	0.67151964
66	0xbd8302d8	-0.06397027
67	0xbff8f1b8	-1.9448767
68	0x3ec264a6	0.37967414
69	0xbf0d3423	-0.5515768
70	0x3fc75d14	1.557528
71	0xbdda3d49	-0.106562205
72	0xbf60782e	-0.8768338
73	0xbf0abeb1	-0.5419722
74	0xbcc8021b	-0.024415066
75	0x3f0bf53b	0.54671067
76	0xbf566493	-0.83747214
77	0x3f2edd4e	0.68306434
78	0xbfce1fcf	-1.6103457
79	0xbaf4bbea	-0.0018671725
80	0xbfd43e74	-1.6581559
81	0xc001fc1b	-2.0310123
82	0xbf76c331	-0.9639159
83	0x3fcca37d	1.5987393
84	0x3f88f859	1.070079
85	0x3f8be276	1.0928485
86	0xbf7383ed	-0.9512318
87	0xbe9ef924	-0.31049454
88	0x3f0ecce8	0.5578141
89	0xbef7cbb9	-0.48397616
90	0x3ec41550	0.3829751
91	0x3faddc0c	1.3582778
92	0xbe38423d	-0.17994018
93	0xbdef311e	-0.1167929
94	0x3f4fb2e4	0.8113234
95	0xbe7b040c	-0.24513263
96	0x3ebc4860	0.36773968
97	0xbf94ecb9	-1.1634742
98	0x3f4cd970	0.80019283
99	0xbe2568fe	-0.16153333
100	0x3f915a95	1.1355768
101	0xbda1a389	-0.0789252
102	0x3f4a284f	0.78967756
103	0xbf57071f	-0.8399524
104	0x3e514444	0.20436198
105	0xbcf07d19	-0.029356526
106	0x3fa5d90d	1.2956864
107	0x3f448f9b	0.76781625
108	0x3f204669	0.6260744
109	0xbeac5469	-0.3365815
110	0x3f532386	0.8247608
111	0xbfea11b7	-1.8286656
112	0xbf60283c	-0.8756139
113	0x3ef9b18a	0.48768264
114	0xbe8fd903	-0.28095254
115	0xbf1c366f	-0.6102056
116	0x3feefc9d	1.8670841
117	0x3e561b37	0.20908819
118	0xbf03b915	-0.5145429
119	0x3e111938	0.14169776
120	0xc02f1ad6	-2.736013
121	0xbdcc689c	-0.0998089
122	0x3f31b509	0.6941686
123	0xbe42206d	-0.18957682
124	0x3edea0ce	0.4348206
125	0xbeafa1df	-0.34303185
126	0x3fa205d2	1.2658026
127	0xbe93ee0a	-0.28892547
128	0x3d88b6aa	0.066754654
129	0x3ff9d03c	1.9516673
130	0xbf1fb532	-0.6238586
131	0xbfda0f16	-1.7035854
132	0x3e9b84e7	0.30374834
133	0xbefc48ab	-0.4927419
134	0x3ee26d31	0.4422393
135	0x3f1633e6	0.5867294
136	0xbf02d784	-0.511101
137	0x3f418e6d	0.7560795
138	0xbe8573d7	-0.2606494
139	0x3f30673f	0.6890754
140	0xbe87cb51	-0.26522306
141	0xbf1167bc	-0.5679891
142	0x4000a482	2.0100408
143	0x3ed1d904	0.40985882
144	0xbf987ec4	-1.1913686
145	0xbf1197e0	-0.5687237
146	0x3f81a0d6	1.0127208
147	0xbeec09c9	-0.46101215
148	0xc03b03d5	-2.922109
149	0x3ede10eb	0.43372282
150	0x3f361529	0.7112604
151	0xbf111925	-0.5667899
152	0x3fc87041	1.5659257
153	0xbeeb349f	-0.45938584
154	0x4034dd32	2.8260007
155	0x3edea5c1	0.43485835
156	0xbff4f7a9	-1.913808
157	0xbef4cfef	-0.4781489
158	0x3f89d3a6	1.0767715
159	0xbf733879	-0.95008045
160	0x3ead0931	0.33796075
161	0xbec8ae5a	-0.3919552
162	0xbf55aeab	-0.8346965
163	0xbfa93019	-1.3217803
164	0x3f8d0d03	1.1019596
165	0x3b446153	0.0029965236
166	0xbfae69e2	-1.3626063
167	0x3e9b2442	0.303011
168	0xbf998513	-1.1993736
169	0xbf2929fe	-0.660797
170	0x3ff75a19	1.9324371
171	0x3dbfd37f	0.093665116
172	0xbf21ef60	-0.6325588
173	0x3eb35f1e	0.35033506
174	0x3e1e5051	0.15460326
175	0xbf45af0c	-0.77220225
176	0xbf901072	-1.1255019
177	0x3e60bc10	0.2194674
178	0x3eea5b88	0.45772958
179	0xbf9c51d8	-1.2212477
180	0x3fd361b7	1.6514195
181	0x3d3c07a3	0.04590572
182	0xbf5d620d	-0.8647774
183	0x3fe09bb4	1.7547517
184	0xbe1301a6	-0.14356098
185	0xc019d807	-2.4038103
186	0x3fbc6935	1.4719607
187	0xbf8f00d7	-1.1172131
188	0x3f922458	1.1417341
189	0x3d1435ec	0.036184236
190	0x3f5794ef	0.8421163
191	0xbeb3f5b0	-0.35148382
192	0xbf8b4ac8	-1.0882196
193	0xbe126ce8	-0.14299357
194	0x3f7ed90c	0.9954994
195	0xbfc54bbe	-1.541374
196	0x3f10b1be	0.56521213
197	0x3ec41e8f	0.38304564
198	0xbd86f69f	-0.06590008
199	0xbf0ea641	-0.55722433
200	0x3eb5ddfa	0.35520917
201	0xbf251c61	-0.6449643
202	0xbe98f6ec	-0.29875886
203	0xbf97109b	-1.1801943
204	0xbfc730bd	-1.5561749
205	0xbf0e364e	-0.5555161
206	0xbf9490a6	-1.1606643
207	0xbf12f55a	-0.57405627
208	0x3f18f171	0.5974341
209	0x3f8472a7	1.0347489
210	0xbfba6ca1	-1.4564401
211	0x3f8d502a	1.1040089
212	0xbf750cc4	-0.95722604
213	0xbf18cb5c	-0.596853
214	0xc00d5b50	-2.2086983
215	0xbf992220	-1.1963539
216	0xbfe1d0a3	-1.7641796
217	0x3e325bc7	0.17417823
218	0x3f99c6d2	1.20138
219	0xbe753cb4	-0.23948938
220	0xbdb7d87b	-0.08976837
221	0x3f8ce14e	1.1006258
222	0xbc77c99e	-0.015123753
223	0x3f064043	0.52441806
224	0xbfb2095b	-1.3909105
225	0x3fad0aff	1.3518981
226	0xbf8f6481	-1.1202546
227	0xbf30ddd4	-0.6908848
228	0xc0173b30	-2.3629875
229	0x3f8b75b5	1.0895296
230	0x3f819514	1.012362
231	0x3da52c34	0.08065072
232	0xbdd06f6c	-0.10177502
233	0x3fb152f0	1.3853436
234	0xc010579f	-2.255348
235	0x3f94f753	1.1637977
236	0x3c8bd286	0.017068159
237	0x3f88deff	1.0693053
238	0xbde8ead3	-0.11372914
239	0xbfbfaa8c	-1.4973922
240	0xbedea649	-0.4348624
241	0x3f3fefc5	0.74975234
242	0x3e48a9d7	0.19596039
243	0x3eeaf9b2	0.45893627
244	0x3f2a1295	0.66434604
245	0xbfad205a	-1.3525498
246	0xbf221a02	-0.63320935
247	0x3ebecd12	0.3726583
248	0xc020b0b4	-2.510785
249	0x3ef8bae2	0.4858008
250	0x3fa908a4	1.3205762
251	0x3ee91bc2	0.4552899
252	0x3ed6bbe0	0.41940212
253	0x3e83d7e4	0.2575065
254	0xbf5d8b04	-0.86540246
255	0xbf90e777	-1.1320637

_module.lstm_layer.weight_ih_l0 f4 [400, 100]
0	0x3ddf71f5	0.109104075
1	0xbc839936	-0.016064268
2	0xbd15f3fb	-0.03660963
3	0x3e0032bd	0.12519355
4	0xbd9fd959	-0.07805128
5	0xbe47acce	-0.19499514
6	0xbd1c86cb	-0.038214486
7	0x3e11c000	0.14233398
8	0xbdcd0fbc	-0.10012767
9	0xbe0d97eb	-0.13827483
10	0xbd95b5c6	-0.07310061
11	0xbc9d014b	-0.019165656
12	0x3db50d72	0.08840455
13	0x3d547ae6	0.051875018
14	0xbaad5f73	-0.0013227299
15	0xbe1a9f3a	-0.15099803
16	0xbcb9d371	-0.022683831
17	0xbdaa5017	-0.08316057
18	0x3da794e4	0.081826955
19	0x3ce9e37d	0.028550858
20	0x3cef295b	0.029194525
21	0x3dc7cea7	0.09756213
22	0x3d397f5f	0.045287486
23	0x3e0b278b	0.13589303
24	0x3d988db0	0.074489
25	0xbc34ab38	-0.01102715
26	0xbdaa8ac8	-0.08327252
27	0x3d4aeb87	0.049541023
28	0x3d00305e	0.031296127
29	0xbcf361cf	-0.029709725
30	0x3d71604d	0.05892973
31	0x3d76111e	0.060074918
32	0x3d861717	0.06547373
33	0x3dc099ed	0.09404359
34	0xbe07d795	-0.13265832
35	0xbd04cfa3	-0.03242458
36	0xbe2c8f86	-0.16851625
37	0xbddea18e	-0.10870658
38	0xbd4f9634	-0.050680354
39	0xbd6b568e	-0.05745559
40	0x3da004e7	0.07813435
41	0xbe26f411	-0.16304041
42	0x3d3d1dd7	0.046171036
43	0xbd948f12	-0.07253851
44	0x3daef730	0.08543241
45	0x3cbda565	0.023150155
46	0xbd8da255	-0.06915728
47	0xbcd41d39	-0.02589284
48	0x3e130957	0.14359032
49	0x3d86cc2a	0.0658191
50	0x3e2cd6c0	0.16878796
51	0x3d99d9d1	0.07512248
52	0xbd57dc25	-0.05270018
53	0x3d398818	0.045295805
54	0x3d8f568b	0.06998929
55	0x3dfb69ec	0.12276062
56	0x3db083cb	0.086188875
57	0xbc8e183c	-0.01734554
58	0xbdc3b1b2	-0.09555377
59	0x3d886550	0.06659949
60	0x3ced56b7	0.028972013
61	0x3d4a250f	0.049351748
62	0x3d2006e8	0.039069086
63	0x3d13ac76	0.036053143
64	0x3dadf7c3	0.084945224
65	0x3cefa179	0.0292518
66	0x3d8c2506	0.06842999
67	0xbc28200d	-0.010261548
68	0x3d66195c	0.05617653
69	0x3d7509b7	0.059823718
70	0xbdb510eb	-0.088411175
71	0x3e07adf9	0.13249959
72	0x3d867b10	0.06566441
73	0xbdb44347	-0.08801895
74	0xbd9b617c	-0.07586953
75	0xbd69b186	-0.057054065
76	0xba8873ca	-0.0010410484
77	0x3e5cb9e5	0.21555288
78	0x3d7f4d32	0.06232948
79	0x3d696195	0.056977827
80	0xbd0b176e	-0.03395789
81	0x3e1bc573	0.1521204
82	0x3d004333	0.031314086
83	0xbc28a499	-0.010293149
84	0xbd7d7fea	-0.061889566
85	0x3b415b27	0.0029503794
86	0x3daee0e5	0.08538989
87	0xbd8104f3	-0.06299772
88	0x3d4ef244	0.05052401
89	0x3df1a4c2	0.11799003
90	0x3e1147ac	0.14187497
91	0x3d2af8c0	0.041741133
92	0x3dbbe05c	0.091736525
93	0xbe3f936f	-0.18708585
94	0x3e18c2c2	0.14918044
95	0xbcb23ecb	-0.021758458
96	0x3dc44ac5	0.09584574
97	0x3c115bd5	0.008871992
98	0x3ce47e43	0.027892238
99	0x3dcea340	0.10089731
100	0x3da9b05e	0.082855925
101	0xbdbd8c71	-0.09255303
102	0xbc95aecf	-0.018271832
103	0xbd2e2a5f	-0.042520877
104	0xbcdfc616	-0.027316134
105	0x3db55986	0.08854966
106	0xbcd47dc3	-0.025938874
107	0x3dc0a81f	0.094070666
108	0x3bbe9ed1	0.0058172722
109	0x3cdf8dda	0.02728932
110	0x3deb433e	0.11487435
111	0xbd7acff3	-0.061233472
112	0xbbe0acd0	-0.0068565384
113	0x3d5c9c96	0.05386027
114	0xbdf30376	-0.118658945
115	0xbd7322f0	-0.05935949
116	0xbdb15110	-0.086580396
117	0x3d399d11	0.045315806
118	0xbe2723d6	-0.16322264
119	0xbccb2d80	-0.02480197
120	0x3e0c3a6d	0.13694163
121	0xbdabc86a	-0.08387835
122	0x3c68c5d7	0.014207325
123	0xbcc5a7df	-0.024127899
124	0xbc08b156	-0.008343061
125	0xbdcfc884	-0.10145667
126	0x3e0b4245	0.13599499
127	0x3dad5257	0.08462971
128	0xbcc17d9c	-0.023619466
129	0x3e3cf757	0.18453728
130	0xbc447e07	-0.011992938
131	0x3cc2d515	0.023783246
132	0xbd945830	-0.07243383
133	0x3d9a7146	0.075411364
134	0x3d9d84f7	0.07691377
135	0x3d1e3fa0	0.038634896
136	0x3dc26cdd	0.0949342
137	0x3ddcdfb3	0.10784855
138	0xbd87791d	-0.066148974
139	0xbd201fd4	-0.039092854
140	0x3d81806c	0.06323323
141	0xbc7ddf97	-0.0154952025
142	0xbe187e8d	-0.14892025
143	0x3c5554a3	0.013020667
144	0x3db55d4f	0.08855688
145	0x3d000c68	0.03126183
146	0xbdcacd05	-0.099023856
147	0x3d56a38f	0.052402075
148	0x3daffbc5	0.08592943
149	0xbdb69e1d	-0.089168765
150	0x3d95da3a	0.07317014
151	0xbde5ab21	-0.11214281
152	0x3c2c5415	0.010518094
153	0x3c7f718f	0.015591039
154	0xbd9dc2d6	-0.07703178
155	0xbcd2626b	-0.025681695
156	0x3b7d3ff4	0.0038642855
157	0x3daa051a	0.08301754
158	0xbdf53a2f	-0.11973988
159	0xbd6f75cc	-0.05846195
160	0x3d91dd9a	0.07122345
161	0xbdab7524	-0.08371952
162	0xbbd4c623	-0.0064933463
163	0x3de0d325	0.109777726
164	0xbd6ab5a4	-0.057302132
165	0x3cfe7ed6	0.03106634
166	0xbdca48aa	-0.09877141
167	0x3d7155ca	0.058919705
168	0x3c6a89c3	0.0143150715
169	0xbd14ccf8	-0.036328286
170	0xbd0b4074	-0.033997014
171	0xbd81220d	-0.06305323
172	0xbcf2f19e	-0.029656228
173	0xbda261c2	-0.07928802
174	0x3d170648	0.036871225
175	0x3dc2c4c1	0.09510184
176	0xbc9dea26	-0.01927669
177	0xbde8d789	-0.11369235
178	0xbdd7fe7e	-0.105465874
179	0xbc3ff549	-0.011716195
180	0xbd4b6728	-0.049658924
181	0x3daed911	0.08537496
182	0xb9f0f341	-0.00045957605
183	0x3b841b9d	0.004031612
184	0x3d9886bf	0.07447576
185	0xbcfe92d5	-0.031075874
186	0x3be0d93f	0.0068618353
187	0xbda4f60b	-0.080547415
188	0x3de4e5e2	0.11176659
189	0xbe15dad6	-0.1463426
190	0xbd128498	-0.035770983
191	0x3db71bb9	0.089408346
192	0xbc8a96ca	-0.016917605
193	0x3dd1c6ff	0.102430336
194	0xbdc8fce5	-0.09813861
195	0xbd465a05	-0.048425693
196	0x3d930795	0.071791805
197	0xbd3897a5	-0.045066494
198	0xbe19bda0	-0.15013742
199	0x3da45a2b	0.08025011
200	0x3e10a0fb	0.14123909
201	0x3da17215	0.078830875
202	0xbe0b208a	-0.13586631
203	0xbda69c40	-0.08135271
204	0x3dbef8d2	0.093248025
205	0x3cb3671d	0.021899754
206	0x3dc4d3a5	0.096106805
207	0xbd1d9f62	-0.038482077
208	0xbb3d723c	-0.00289072
209	0xbc1655af	-0.009175702
210	0x3cd9e84f	0.026600031
211	0xbd0c5491	-0.034260336
212	0x3e19073d	0.14944167
213	0xbcfe179e	-0.03101712
214	0xbe2505d8	-0.1611551
215	0xbc32e830	-0.010919616
216	0xbcbb48de	-0.022861894
217	0xbcbe224e	-0.023209717
218	0x3dbdfc14	0.09276596
219	0x3da59154	0.0808436
220	0x3c23092c	0.009950917
221	0x3dd8dc3f	0.105888836
222	0xbd212611	-0.039342944
223	0x3d92d995	0.07170407
224	0x3d0bc75c	0.03412567
225	0x3d0d822d	0.034547973
226	0x3d9e3db8	0.07726616
227	0x3c7442cd	0.014908505
228	0x3c8a8fe9	0.016914325
229	0x3cc53ac6	0.024075877
230	0xbd10e944	-0.03537871
231	0x3deacd7f	0.114649765
232	0xbd669e8b	-0.056303542
233	0x3c0fea0f	0.008783831
234	0x3dd69391	0.10477365
235	0x3e486bc8	0.19572365
236	0x3d47593c	0.048669085
237	0x3cf21415	0.029550591
238	0x3d800fe5	0.06253032
239	0xbd8afa68	-0.067860425
240	0xbcc1fac3	-0.023679143
241	0x3d11f9a6	0.035638474
242	0xbd7fdbd5	-0.062465508
243	0xbb6f6fe7	-0.0036535205
244	0x3dfb2a68	0.12263948
245	0x3e4043d7	0.18775879
246	0x3c0d7fa8	0.008636393
247	0xbdd7c3b5	-0.10535375
248	0xbd49eae8	-0.04929629
249	0x3e2719fa	0.16318503
250	0x3dc27f68	0.09496957
251	0x3e00f55e	0.125936
252	0x3d019316	0.031634413
253	0x3d01c12b	0.03167836
254	0x3da02a7e	0.07820605
255	0x3d81bb4a	0.06334551

_module.lstm_layer.bias_ih_l0 f4 [400]
0	0xbcdb4fdc	-0.026771478
1	0xbd636c59	-0.05552325
2	0xbd431587	-0.047627952
3	0xbbfd2719	-0.007725608
4	0x3ca5ef84	0.020255812
5	0xbe31b300	-0.1735344
6	0x3b8e4482	0.004341663
7	0xbe831194	-0.2559935
8	0x3e88d6bf	0.26726338
9	0x3cc99937	0.024609191
10	0xbc1ce742	-0.0095766205
11	0x3bf8e447	0.007595572
12	0x3e28bf63	0.16479258
13	0xbe042549	-0.12904848
14	0x3c4a5106	0.012348419
15	0xbda0d2e4	-0.07852724
16	0xbd505d11	-0.050870005
17	0x3b0435e2	0.0020173718
18	0xbdc39b02	-0.0955105
19	0x3b365128	0.002781937
20	0xbc80860a	-0.015688915
21	0x3ddcdee6	0.10784702
22	0xbc7e4722	-0.015519889
23	0x3dc63c60	0.09679484
24	0xbc53cd0b	-0.012927304
25	0x3e266e04	0.16252905
26	0x3d3f220b	0.046663325
27	0xbd0a440a	-0.033756293
28	0x3dd4c86e	0.103897914
29	0xbd6feb3d	-0.05857395
30	0xbdc6881c	-0.096939296
31	0x3dbb0358	0.09131497
32	0xbb991632	-0.0046718353
33	0xbe0a7aa1	-0.13523342
34	0x3d38855d	0.04504906
35	0x3e1215c6	0.14266118
36	0x3dc006f2	0.09376325
37	0x3de4fe77	0.11181348
38	0x3dd09f22	0.10186602
39	0xbd950067	-0.07275467
40	0x3cf918ae	0.030407276
41	0x3e2196fd	0.15780254
42	0x3d9f2c7e	0.07772158
43	0x3db59815	0.08866898
44	0x3deee3b4	0.11664525
45	0xbcf29ddb	-0.029616287
46	0x3d87a160	0.06622577
47	0x3d90924d	0.07059155
48	0x3c5997f4	0.013280857
49	0xbd94c5a3	-0.07264259
50	0x3dd7a0aa	0.10528691
51	0xbbb0c9ba	-0.0053951414
52	0x3d410685	0.047125358
53	0x3e00d68f	0.12581848
54	0xbca23c79	-0.019804226
55	0x3e19640e	0.14979574
56	0x3d635a05	0.05550577
57	0xbdfbb246	-0.12289862
58	0xbc59a680	-0.013284326
59	0xbdf39732	-0.118940726
60	0x3e65178c	0.22372264
61	0x3e0c19ee	0.13681766
62	0x3e03b06c	0.12860268
63	0xbcce611c	-0.02519279
64	0x3d867ec1	0.06567145
65	0x3ca8f764	0.020625778
66	0x3bf7be65	0.0075605386
67	0x3c961369	0.018319802
68	0x3e85fc7d	0.26169196
69	0xbccb2ceb	-0.024801692
70	0x3c1dd5f3	0.009633529
71	0xbb808d87	-0.0039231214
72	0x3d77e980	0.060525417
73	0x3d5cbe3e	0.053892367
74	0x3d7a8f9c	0.061172113
75	0x3bd96a00	0.0066349506
76	0xbd95a052	-0.07305969
77	0x390edb9a	0.00013623983
78	0x3e6a790e	0.22897741
79	0xbda2fe0d	-0.079586126
80	0x3cbd74fb	0.02312707
81	0x3d3e42dd	0.046450485
82	0xbc49afa9	-0.012309947
83	0x3caed8bd	0.021343583
84	0x3d423ea1	0.04742301
85	0x3dd03453	0.1016623
86	0x3d4ea44f	0.050449666
87	0x3db75219	0.08951206
88	0xbc5d32f8	-0.013500921
89	0x3e004376	0.12525734
90	0x3d7dadbc	0.061933264
91	0x3cfb4f1a	0.030677367
92	0xbe366648	-0.17812455
93	0xbccf68d5	-0.025318542
94	0xbd0ed64c	-0.03487234
95	0x3e46dfa4	0.1942125
96	0xbd5f1176	-0.05446001
97	0x3e47ec82	0.19523814
98	0xbcf17721	-0.02947575
99	0xbd92a6af	-0.071606986
100	0x3d5a5251	0.05330116
101	0x3dfa7896	0.12230031
102	0x3d17f024	0.03709425
103	0xbd3c9fd4	-0.04605086
104	0xbd8d63ce	-0.06903802
105	0x3e2dcbdb	0.16972296
106	0xbdcd3125	-0.10019139
107	0xbdd43728	-0.10362083
108	0x3c4249f1	0.011858449
109	0x3b883a39	0.0041573313
110	0x3e22e10d	0.15906163
111	0xbce6687e	-0.028125998
112	0xbc2eca6b	-0.010668377
113	0x3dc5f544	0.09665921
114	0x3bebecc7	0.007199857
115	0x3d1cb48b	0.038258117
116	0x3d5eb489	0.05437139
117	0x3ddfa8e7	0.109208874
118	0xbc399176	-0.0113261845
119	0xbe0667e8	-0.13125575
120	0xbd249371	-0.040179674
121	0x3e2f0b94	0.1709426
122	0x3e0c2dec	0.13689393
123	0xbca59c43	-0.020216113
124	0xbdd60daa	-0.10451825
125	0x3d7efaa6	0.062250756
126	0xbe092340	-0.13392353
127	0x3ca926ec	0.020648442
128	0x3d73e48c	0.05954413
129	0xbd698e30	-0.057020366
130	0x3de4e7eb	0.11177047
131	0x3e47629d	0.19471212
132	0x3e4d23ab	0.20033138
133	0x3cbe18f6	0.023205262
134	0x3d81cac1	0.063375
135	0x3dd6db78	0.10491079
136	0xbdc9ecfc	-0.09859654
137	0x3d139781	0.036033157
138	0x3d509892	0.050926752
139	0x3b05cb80	0.0020415485
140	0xbde0f52f	-0.10984265
141	0x3d8634c2	0.065530315
142	0x3c1b6c43	0.009486261
143	0x3bef77d0	0.007307984
144	0xbb8d5fa0	-0.004314378
145	0xbb8f2e53	-0.004369536
146	0xbda38d58	-0.079859436
147	0x3d619adf	0.055079337
148	0x3d7f9141	0.062394384
149	0x3e28a446	0.16468915
150	0x3e032041	0.12805273
151	0xbd968246	-0.073490664
152	0xbd24c740	-0.040229082
153	0x3e413cb2	0.1887081
154	0x3d4f5c3c	0.05062507
155	0x3e4402f0	0.19141746
156	0x3e01a773	0.12661533
157	0x3e375192	0.1790221
158	0x3c6fe90f	0.014642968
159	0x3d5fa693	0.054602217
160	0x3dbe3ede	0.09289335
161	0x3cc41982	0.023937944
162	0xbd6ca337	-0.05777284
163	0xbd15e86f	-0.03659862
164	0x3e3b1b9e	0.18272254
165	0x3da04e1c	0.07827398
166	0x3db617f0	0.088912845
167	0x3c542ee8	0.012950636
168	0xbe11a3c6	-0.14222631
169	0x3ce35241	0.027749183
170	0x3d61b52d	0.055104423
171	0xbda06892	-0.07832445
172	0x3dcaef86	0.09908967
173	0xbd4424cd	-0.04788666
174	0x3d9ad7b8	0.07560676
175	0xbbde52c8	-0.0067847706
176	0x3e22602c	0.15856999
177	0x3d29f3ac	0.04149215
178	0x3e468adc	0.19388908
179	0xbe012160	-0.12610388
180	0x3e225348	0.15852082
181	0x3c5951ff	0.013264178
182	0x3d8a1468	0.067421734
183	0x3e158e73	0.14605121
184	0x3dca3d8e	0.09875022
185	0x3bd91809	0.0066251797
186	0x3dacfbc4	0.08446458
187	0x3e4e56cf	0.20150302
188	0x3d9ce2e2	0.07660462
189	0x3d13a59f	0.03604662
190	0xbb958cbd	-0.0045638965
191	0xbd5b8bc9	-0.053600106
192	0xbd89a82c	-0.06721529
193	0x3ce765d5	0.0282468
194	0x3e2bf672	0.1679323
195	0x3c7b0fa7	0.015323556
196	0x3d7645a7	0.06012502
197	0x3d92702a	0.071503
198	0x3ca3c291	0.019990237
199	0x3c8f9e40	0.017531514
200	0xbe225126	-0.15851268
201	0xbd1b4dd3	-0.037916016
202	0x3d310004	0.043212906
203	0x3df85172	0.121249095
204	0x3d7518d3	0.059838127
205	0xbe14295a	-0.144689
206	0x3d976f75	0.073943056
207	0xbd3659d9	-0.04451928
208	0xbe021e4b	-0.12706868
209	0x3e0611e1	0.13092758
210	0xbd295ce7	-0.041348364
211	0xbd60230f	-0.054720934
212	0xbce684b9	-0.028139459
213	0xbc9f7224	-0.019463606
214	0xbe4d9140	-0.2007494
215	0xbd279a39	-0.040918563
216	0x3db72445	0.08942465
217	0xbd39c08b	-0.04534964
218	0x3d77e8cd	0.06052475
219	0xbd959ca6	-0.07305269
220	0x3e0beaa1	0.13663723
221	0xbe6bdc1e	-0.23033187
222	0x3d07663a	0.033056475
223	0x3da31ac9	0.07964093
224	0x3c0fffef	0.008789047
225	0xbcf3b5cc	-0.029749773
226	0x3d9fe2d8	0.07806939
227	0x3c0b9c1d	0.008521107
228	0xbdc29347	-0.09500747
229	0xbd8b8faf	-0.06814515
230	0x3dd291bf	0.10281705
231	0x3d806485	0.062691726
232	0xbe877020	-0.26452732
233	0xbe8b82dd	-0.27248278
234	0xbd3d4e74	-0.046217397
235	0xbe467d6a	-0.19383779
236	0xbea5338e	-0.32265896
237	0x3ea8dafd	0.32979575
238	0x3e848832	0.2588516
239	0x3d2e098b	0.04248957
240	0xbddbca75	-0.10731975
241	0xbcab4b4d	-0.02090993
242	0x3e127009	0.1430055
243	0xbd9405e5	-0.07227687
244	0xbcfeba14	-0.031094588
245	0xbc8fcbad	-0.017553175
246	0xbd47576f	-0.048667368
247	0xbdad922a	-0.08475144
248	0x3dc12c56	0.094322845
249	0xbdb9fddb	-0.09081622
250	0x3c2d1a8d	0.010565412
251	0x3db241ab	0.087039314
252	0x3d68355f	0.056691524
253	0x3cf8644f	0.030321268
254	0xbe2fd1e2	-0.17169908
255	0xbdb13f1e	-0.08654617

_module.lstm_layer.weight_hh_l0 f4 [400, 100]
0	0xbd2d5539	-0.042317603
1	0x3c9e4bfc	0.019323342
2	0xbdbf1685	-0.09330467
3	0x3d387604	0.045034423
4	0x3ad2487e	0.0016043333
5	0xbdb01b7c	-0.08598992
6	0xbd9ed4b7	-0.07755416
7	0x3d0c23c4	0.034213796
8	0x3de2ff1a	0.11083813
9	0x3d95c488	0.07312876
10	0xbe07ce90	-0.13262391
11	0x3ddd57a9	0.108077355
12	0x3c9be88c	0.019031785
13	0xbe095286	-0.13410386
14	0x3d32c0fb	0.04364107
15	0xbd1ec979	-0.038766358
16	0xbd067ffd	-0.032836903
17	0x3e1a73ca	0.15083233
18	0xbd69036d	-0.056888033
19	0xbdb46d5e	-0.08809923
20	0xbe213fd8	-0.1574701
21	0xbe8031cc	-0.25037992
22	0x3da6d54f	0.08146154
23	0x3ddd5c7d	0.10808656
24	0xbd3dc26c	-0.046327993
25	0x3e110ada	0.14164296
26	0x3d632c2d	0.05546205
27	0xbdc32ef5	-0.09530441
28	0x3d5c9b1a	0.053858854
29	0x3d052b20	0.03251183
30	0xbcf440ca	-0.02981605
31	0xbc6c943f	-0.0144396415
32	0xbd9910e5	-0.074739255
33	0x3d834ecf	0.06411516
34	0x3d005b2e	0.031336956
35	0xbd8144ff	-0.06311988
36	0xbb784952	-0.00378855
37	0x3d95bce8	0.07311422
38	0xbdd66bae	-0.10469757
39	0xbd190cdd	-0.037365783
40	0x3b506dc1	0.00318037
41	0xbce5fd91	-0.028075011
42	0xbd8e291c	-0.06941435
43	0x3e299d23	0.16563849
44	0x3d4c046a	0.049808897
45	0xbde3f076	-0.11129849
46	0x3dccdd39	0.100031324
47	0xbdb06de6	-0.086147115
48	0x3dc3efd8	0.09567231
49	0xbb52afb0	-0.0032148175
50	0xbc989aa5	-0.018628428
51	0x3d446248	0.04794529
52	0x3b2733f8	0.0025513154
53	0xbd93766e	-0.07200323
54	0x3b702650	0.003664393
55	0xbd9df43b	-0.07712599
56	0x3d8ad042	0.06778003
57	0x3ce9edc4	0.028555758
58	0xbdbed8ff	-0.093187325
59	0xbca1e5ec	-0.019762956
60	0x3dbd0fcb	0.09231528
61	0xbcca5fdb	-0.02470391
62	0x3c800c81	0.015630962
63	0x3cf413b7	0.029794557
64	0xbe08299b	-0.13297121
65	0xbdc996a3	-0.09843185
66	0x3c84a47e	0.016191717
67	0xbd8265ce	-0.06367074
68	0x3e1ebcd0	0.15501714
69	0xbe08a53b	-0.1334428
70	0xbcff2824	-0.03114707
71	0xbde5e92b	-0.11226114
72	0xbb4114bc	-0.0029461822
73	0xbd2f8e9f	-0.042860623
74	0x3d863e0d	0.06554804
75	0x3c9548f2	0.01822326
76	0xbdc5fc03	-0.09667208
77	0xbd94e14b	-0.07269534
78	0xbcfc8db1	-0.030829282
79	0x3ded1718	0.115766704
80	0x3dd2a07b	0.102845155
81	0xbe0c247e	-0.13685796
82	0xbc6bf685	-0.014402037
83	0xbc7aede0	-0.015315503
84	0xbddb443d	-0.10706375
85	0x3d312313	0.04324634
86	0x3d1e097c	0.038583264
87	0xbd023f14	-0.031798437
88	0x3ac31905	0.0014884776
89	0x3d8c0802	0.06837465
90	0xbcb89a41	-0.022534491
91	0x3ce53a1f	0.027981816
92	0x3d0e3f61	0.03472841
93	0x3d9b2832	0.07576026
94	0xbabe39ac	-0.0014513037
95	0x3db85a44	0.09001592
96	0xbdef2b50	-0.11678183
97	0x3c1aa91c	0.009439733
98	0xbdd3f5bd	-0.10349605
99	0xbdce1a57	-0.10063618
100	0x3d0f81f1	0.03503603
101	0x3be3e687	0.0069549712
102	0xbc2f1969	-0.010687211
103	0x3daafa99	0.08348579
104	0x3da74700	0.08167839
105	0xbd5891bf	-0.05287337
106	0x3d095b83	0.033534538
107	0xbdccc7e8	-0.099990666
108	0x3e0676c4	0.13131243
109	0x3ccaf36f	0.024774281
110	0xbd89f20f	-0.06735622
111	0xbdb9e77d	-0.09077356
112	0x3be90d5a	0.0071121873
113	0xbc9ef709	-0.019404905
114	0xb984808e	-0.00025272783
115	0xbe017a36	-0.12644276
116	0x3d852d51	0.06502784
117	0xbdc29e9a	-0.09502907
118	0xbd89afd1	-0.067229874
119	0x3cfc4ae3	0.030797428
120	0x3c8a6733	0.016894912
121	0x3c793fe3	0.015212986
122	0x3d3f41ea	0.04669372
123	0x3d5010f6	0.050797425
124	0x3ccb12e3	0.02478928
125	0x3d546a54	0.051859215
126	0xbdfa5989	-0.12224109
127	0x3d13910b	0.036026996
128	0xbd290ad8	-0.041270107
129	0xbdc7fe30	-0.09765279
130	0xbd3e192c	-0.046410725
131	0xbc80d5c7	-0.015726937
132	0xbc83d838	-0.016094312
133	0x3db72fe9	0.08944685
134	0xbdd82573	-0.10554018
135	0xbddd7b9b	-0.108145915
136	0x3dbebf15	0.0931379
137	0x3ca6546a	0.020303924
138	0xbe363828	-0.1779486
139	0x3de4d2a1	0.11172987
140	0x3e563051	0.20916869
141	0x3d5d8509	0.05408195
142	0x3cf791a8	0.030220821
143	0xbe1e7f7d	-0.1547832
144	0xbe2e1b0d	-0.17002507
145	0xbe38706a	-0.18011633
146	0xbdb479c6	-0.08812289
147	0xbbfff66e	-0.007811359
148	0x3c7e71ea	0.015530089
149	0xbe3bef5a	-0.18353024
150	0xbe08c245	-0.13355358
151	0xbda73539	-0.08164448
152	0x3dae2d5d	0.08504746
153	0xbdfd312a	-0.12362893
154	0x3d8a82c3	0.06763222
155	0xbd316df4	-0.04331775
156	0xbe008560	-0.12550879
157	0xbd261989	-0.040551696
158	0x3c2f86ad	0.010713262
159	0x3da229a7	0.07918101
160	0x3e0ebde8	0.13939631
161	0x3d438dbe	0.047742598
162	0x3d029c9b	0.031887632
163	0x3d5257f8	0.051353425
164	0xbdcfbc94	-0.1014339
165	0xbc1c6880	-0.009546399
166	0xbc8cc198	-0.017182156
167	0xbdb0ace5	-0.08626727
168	0x3d303c8e	0.0430265
169	0x3d46075a	0.048346855
170	0xbe2eb563	-0.17061381
171	0xbb075c74	-0.0020654472
172	0xbd25baac	-0.040461227
173	0xbc09746b	-0.008389573
174	0xbba51723	-0.0050381585
175	0x3c3a9a78	0.011389367
176	0xbe3797cc	-0.17929
177	0x3d2dee3e	0.042463534
178	0x3e065c3d	0.13121124
179	0xbdd6a102	-0.104799286
180	0xbb9fa6cd	-0.004872179
181	0x3d7c6067	0.061615374
182	0x3df7733e	0.120825276
183	0xbc7e83c6	-0.015534347
184	0x3dac1f02	0.08404352
185	0x3e2e4ce3	0.17021517
186	0x3de7d76a	0.11320384
187	0xbdbbfb3d	-0.09178779
188	0x3daabc45	0.08336691
189	0x3d1cc51f	0.038273927
190	0x3be3a7fa	0.0069475146
191	0x3c9a83a2	0.018861596
192	0x3e27d6ae	0.16390488
193	0xbd5c5a62	-0.053797133
194	0x3d2e90d3	0.042618584
195	0x3d042969	0.032266054
196	0xba353514	-0.00069125113
197	0xbd39e7b7	-0.045386996
198	0xbe8acd69	-0.2710984
199	0xbe1c57ff	-0.15267943
200	0x3d903e64	0.0704315
201	0xbd8e8232	-0.069584265
202	0xbab43924	-0.0013749939
203	0xbd3c20b1	-0.045929614
204	0xbcb4c6ff	-0.022067545
205	0x3aa65a5c	0.0012691724
206	0x3dcfa511	0.10138906
207	0x3ca6e0c6	0.020370852
208	0xbd86d825	-0.06584195
209	0xbd869c47	-0.06572776
210	0xbdb01aaa	-0.08598836
211	0x3d6984b9	0.05701134
212	0xbdd22776	-0.10261433
213	0xbd0af0f1	-0.033921186
214	0xbd246afb	-0.040141087
215	0x3bdacc0e	0.0066771572
216	0x3dbf3584	0.09336379
217	0xbe03ae37	-0.12859426
218	0xbdabafdb	-0.08383151
219	0xbcb63b95	-0.022245208
220	0x3d0c9aad	0.034327198
221	0xbdef3bf7	-0.11681359
222	0x3e19b9ca	0.15012279
223	0x3d0e5536	0.034749232
224	0xbd8bc3fc	-0.068244904
225	0x3d5bf1f0	0.053697526
226	0x3dd0a4c5	0.10187677
227	0xbb8c7f55	-0.00428764
228	0xbd1bfe4e	-0.03808432
229	0xbcb4ed74	-0.022085883
230	0xbb1e86bd	-0.0024189197
231	0xbdcea712	-0.1009046
232	0xbd860de9	-0.06545622
233	0xbd6c5e50	-0.05770713
234	0x3d4dcaaa	0.050242104
235	0x3b21b887	0.0024676637
236	0xbdc1df62	-0.09466435
237	0xbdbd7c3c	-0.092522115
238	0xbd57e89b	-0.052712064
239	0x3c48df18	0.012260221
240	0xbd2eaada	-0.042643405
241	0xbc95f137	-0.018303497
242	0xbcc66b73	-0.024221158
243	0x3e26c7c3	0.1628714
244	0x3d86c2e8	0.06580144
245	0xbde01b56	-0.10942714
246	0xbc7275b1	-0.014798568
247	0x3ddbc6f7	0.10731309
248	0xbd18c800	-0.03730011
249	0x3d55cd74	0.05219789
250	0xbc852090	-0.016250879
251	0x3dec6032	0.11541785
252	0xbc34f793	-0.011045354
253	0x3e010942	0.12601188
254	0x3cb4ae97	0.022055907
255	0x3c24d57a	0.010060662

_module.lstm_layer.bias_hh_l0 f4 [400]
0	0xbce17994	-0.027523793
1	0xbd9f4112	-0.07776083
2	0x3ddc18d8	0.10746926
3	0xbdbb72e9	-0.09152777
4	0xbb4bdd66	-0.0031107306
5	0x3c0e5315	0.0086868005
6	0x3ce6d2c6	0.028176676
7	0xbd951ecc	-0.07281265
8	0x3ca6cbb4	0.020360805
9	0x3c3f2c7c	0.011668321
10	0x3da8a50d	0.08234606
11	0xbdac2d01	-0.08407021
12	0xbc92eeee	-0.017936196
13	0xbd676855	-0.056495983
14	0x3e084709	0.13308348
15	0xbdce6375	-0.10077564
16	0x3d0e3701	0.034720425
17	0xbdd761e5	-0.10516719
18	0xbd6601dc	-0.056154117
19	0xbe0d7dbf	-0.138175
20	0x3d87dcc3	0.06633904
21	0x3da0e6ff	0.07856559
22	0x3da83635	0.08213464
23	0xbd69fcf9	-0.05712602
24	0x3d818d55	0.06325785
25	0x3e3884d1	0.18019415
26	0x3df93ac9	0.121694155
27	0x3d6fdeb6	0.058562003
28	0x3e1b66a1	0.15175869
29	0xbdb718f7	-0.089403085
30	0x3d970a69	0.073750325
31	0x3dd91298	0.105992496
32	0x3e19d6c3	0.15023331
33	0x3dbf31d5	0.093356766
34	0xbca72e59	-0.020407842
35	0x3dd93cd3	0.106073044
36	0x3dfa64a3	0.12226226
37	0x3bc74cd7	0.006082158
38	0x3c6a1688	0.014287598
39	0xbd26f155	-0.040757496
40	0xbde8657f	-0.11347484
41	0x3d328903	0.043587696
42	0x3c533793	0.012891668
43	0x3ddd1574	0.107951075
44	0x3c3e2972	0.011606561
45	0xbd9baed4	-0.07601705
46	0xbcfc04c3	-0.03076399
47	0x3e1c2a35	0.15250476
48	0x3e048c11	0.12944056
49	0x3c43fd7a	0.011962289
50	0x3dc0e9c1	0.09419585
51	0x3ba426f6	0.0050095273
52	0xbd81d59d	-0.063395716
53	0x3e76c243	0.24097542
54	0x3ce157bf	0.02750766
55	0x3d435f99	0.04769859
56	0x3dfb2165	0.12262229
57	0xb934137b	-0.00017173395
58	0x3c88858b	0.01666524
59	0xbb86955f	-0.004107162
60	0x3d7b91dc	0.0614184
61	0x3d05a22f	0.032625373
62	0x3dafd26d	0.085850574
63	0xbcd1880b	-0.025577566
64	0x3d8bb63a	0.06821866
65	0x3e04f546	0.1298419
66	0x3aef9a3d	0.001828022
67	0x3dbc41b4	0.091922194
68	0xb9c42ecb	-0.00037418897
69	0x3dba0809	0.09083564
70	0x3d19a15e	0.037507407
71	0x3d51de70	0.051237524
72	0xbd1a52f4	-0.037676767
73	0x3d60a45f	0.054844256
74	0x3d9e3887	0.077256255
75	0xbd5983cf	-0.053104218
76	0x3d18a30a	0.03726486
77	0xbd50f80f	-0.051017817
78	0x3e2fa383	0.17152219
79	0xbd6eab24	-0.05826868
80	0xbd989bbe	-0.074515805
81	0xbdfb0374	-0.12256518
82	0x3dba19a7	0.09086924
83	0xbdcc30a6	-0.099702165
84	0x3dd79a22	0.105274454
85	0xbc1c1cd8	-0.009528361
86	0x3ca0ddc6	0.019637
87	0x3dbdffd8	0.09277314
88	0xbd00142d	-0.03126924
89	0x3d53b32d	0.051684547
90	0xbd389fb0	-0.045074165
91	0x3e29c4e4	0.16579014
92	0x3dec458a	0.11536701
93	0x3dbde981	0.09273053
94	0x3db60b27	0.08888846
95	0x3e243644	0.16036326
96	0xbc1d6fbd	-0.00960916
97	0xbdfc256f	-0.123118274
98	0xbd27d95e	-0.040978782
99	0xbc441258	-0.011967264
100	0x3e0599c5	0.1304694
101	0xbdec7c29	-0.11547119
102	0xbc56d346	-0.013111895
103	0xbe100e3d	-0.14067931
104	0xbcb47057	-0.022026224
105	0x3c1bb48f	0.009503498
106	0xbba3928f	-0.0049918364
107	0x3e0da559	0.13832606
108	0xbddfa590	-0.109202504
109	0x3e242a8c	0.16031855
110	0x3d7ed8f9	0.06221864
111	0x3da14f1e	0.078764185
112	0x3c04dcb0	0.008109257
113	0x3d37e30b	0.04489426
114	0x3df02bb5	0.117270865
115	0xbc66de2b	-0.014091055
116	0x3d6a7a13	0.057245325
117	0x3d985b03	0.07439234
118	0xbd8dada5	-0.06917886
119	0x3d17c55f	0.037053462
120	0xbdf0b01e	-0.11752342
121	0x3e565768	0.2093178
122	0xbc2284f8	-0.0099193975
123	0x3d9d5604	0.07682422
124	0x3e0ab6e0	0.13546324
125	0x3d9323dd	0.07184575
126	0x3d8a67d4	0.06758085
127	0xbda67648	-0.08128029
128	0xbdbd228a	-0.092351034
129	0x3d1a4079	0.037659142
130	0xbc1ba701	-0.009500266
131	0x3dc9d5cb	0.09855231
132	0x3e02b34f	0.12763713
133	0x3d56de03	0.05245782
134	0x3dc891b0	0.09793413
135	0x3dfb661b	0.122753344
136	0xbcc7d029	-0.02439125
137	0x3e50ee43	0.2040339
138	0x3d95450a	0.07288559
139	0xbdb9cd68	-0.09072381
140	0xbd9826cb	-0.07429274
141	0x3e4053a7	0.18781911
142	0x3cad8a86	0.021184217
143	0x3d87fcf7	0.06640046
144	0x3e00dbf0	0.125839
145	0x3c5d6303	0.013512376
146	0x3c7d93b9	0.015477114
147	0xbd641cf3	-0.05569167
148	0xbd92334e	-0.07138692
149	0x3e26ffec	0.16308564
150	0xbdb91a51	-0.090382226
151	0x3d7f40d9	0.062317703
152	0x3dc36e41	0.09542514
153	0x3d60a9a6	0.05484929
154	0x3df0b4df	0.117532484
155	0x3dfa6716	0.12226693
156	0x3d2e946e	0.042622022
157	0x3d59be7f	0.053160187
158	0x3c9e7d32	0.019346807
159	0x3dca2982	0.09871198
160	0x3dc6eb44	0.09712842
161	0x39f8c464	0.00047448569
162	0xbd2d0241	-0.042238478
163	0x3da21ef2	0.079160586
164	0xbd3d64a0	-0.04623854
165	0x3c9ec7e4	0.019382425
166	0x3ca30e58	0.0199043
167	0xbd920536	-0.071299
168	0x3e1bcf6e	0.15215847
169	0x3dec26d7	0.115308456
170	0xbc0a8e8c	-0.008456837
171	0x3db36c0b	0.08760842
172	0xbd32217a	-0.043488957
173	0x3d86ef5b	0.06588622
174	0x3de73adc	0.112905234
175	0x3df1a00a	0.11798103
176	0x3d1fd743	0.03902365
177	0xbc1ba55c	-0.009499874
178	0xbde034ed	-0.10947595
179	0xbd6f0466	-0.058353804
180	0x3c79d8e1	0.015249462
181	0x3c94345f	0.018091379
182	0xbd623c68	-0.05523339
183	0x3cea17d1	0.02857581
184	0x3a711ea2	0.0009197985
185	0xbd6086ae	-0.05481594
186	0x3c78984c	0.015173029
187	0x3d0ec8c4	0.034859434
188	0xbd511a85	-0.05105068
189	0xbd1680c5	-0.036743898
190	0xbe0da454	-0.13832217
191	0xbd76d296	-0.060259424
192	0xbd1e532f	-0.03865355
193	0x3da00f56	0.07815425
194	0x3e084a57	0.13309608
195	0x3e5faa04	0.218422
196	0x3e19422e	0.14966652
197	0x3dedc9d2	0.1161076
198	0xbcf289ac	-0.029606663
199	0x3e10bbbc	0.14134115
200	0xbd5c4725	-0.053778786
201	0xbc891acc	-0.01673641
202	0xbd8651a4	-0.065585405
203	0xbbc7bcad	-0.00609549
204	0x3dd85ca6	0.10564546
205	0x3a7c7779	0.000963084
206	0x3e22c08a	0.1589376
207	0xbdba1ddb	-0.09087726
208	0xbdbe90e7	-0.09304982
209	0x3de67628	0.11253005
210	0x3d0db9f4	0.034601167
211	0x3a95d4d4	0.0011431226
212	0xbcf48ec5	-0.029853234
213	0xbd38576f	-0.04500526
214	0xbd1f6842	-0.038917787
215	0xbe0bc8f3	-0.13650875
216	0x3e27babe	0.1637983
217	0xbcf6a9c0	-0.03011024
218	0x3d09b8af	0.033623394
219	0xbdd3a95f	-0.10335039
220	0x3e024646	0.1272212
221	0xbdbeec9e	-0.09322475
222	0xbd082710	-0.033240378
223	0x3c1b591e	0.009481696
224	0xbe486c2d	-0.19572516
225	0xbcc8cc72	-0.02451155
226	0x3d3586bc	0.044317946
227	0x3d7fbe15	0.062437136
228	0x3d926133	0.071474455
229	0x3de2e064	0.11077955
230	0xbdd8232e	-0.10553585
231	0xbd17c3e5	-0.037052054
232	0xbd1912ab	-0.03737132
233	0xbe42b01e	-0.19012496
234	0xbceb0de0	-0.02869314
235	0xbd3579af	-0.0443055
236	0xbe4e727f	-0.20160864
237	0x3e03d861	0.12875511
238	0xbdb6419a	-0.08899231
239	0xbd4bccb1	-0.049755756
240	0xbdc468dc	-0.09590313
241	0xbd836f9f	-0.064177744
242	0xbe3790aa	-0.17926279
243	0xbe12bc39	-0.14329614
244	0xbe26577b	-0.16244309
245	0xbe368b38	-0.17826545
246	0x3e44c8a5	0.19217165
247	0xbdf3a642	-0.118969455
248	0xbc32879d	-0.010896591
249	0x3e366de2	0.17815354
250	0xbe8441a5	-0.25831333
251	0xbcf66981	-0.030079605
252	0x3e1d2220	0.15345049
253	0x3e830f16	0.25597447
254	0x3cfeecd9	0.031118797
255	0x3cec7cff	0.028868197

_module.lstm_layer.l0.ih.weight f4 [400, 100]
0	0x3ddf71f5	0.109104075
1	0xbc839936	-0.016064268
2	0xbd15f3fb	-0.03660963
3	0x3e0032bd	0.12519355
4	0xbd9fd959	-0.07805128
5	0xbe47acce	-0.19499514
6	0xbd1c86cb	-0.038214486
7	0x3e11c000	0.14233398
8	0xbdcd0fbc	-0.10012767
9	0xbe0d97eb	-0.13827483
10	0xbd95b5c6	-0.07310061
11	0xbc9d014b	-0.019165656
12	0x3db50d72	0.08840455
13	0x3d547ae6	0.051875018
14	0xbaad5f73	-0.0013227299
15	0xbe1a9f3a	-0.15099803
16	0xbcb9d371	-0.022683831
17	0xbdaa5017	-0.08316057
18	0x3da794e4	0.081826955
19	0x3ce9e37d	0.028550858
20	0x3cef295b	0.029194525
21	0x3dc7cea7	0.09756213
22	0x3d397f5f	0.045287486
23	0x3e0b278b	0.13589303
24	0x3d988db0	0.074489
25	0xbc34ab38	-0.01102715
26	0xbdaa8ac8	-0.08327252
27	0x3d4aeb87	0.049541023
28	0x3d00305e	0.031296127
29	0xbcf361cf	-0.029709725
30	0x3d71604d	0.05892973
31	0x3d76111e	0.060074918
32	0x3d861717	0.06547373
33	0x3dc099ed	0.09404359
34	0xbe07d795	-0.13265832
35	0xbd04cfa3	-0.03242458
36	0xbe2c8f86	-0.16851625
37	0xbddea18e	-0.10870658
38	0xbd4f9634	-0.050680354
39	0xbd6b568e	-0.05745559
40	0x3da004e7	0.07813435
41	0xbe26f411	-0.16304041
42	0x3d3d1dd7	0.046171036
43	0xbd948f12	-0.07253851
44	0x3daef730	0.08543241
45	0x3cbda565	0.023150155
46	0xbd8da255	-0.06915728
47	0xbcd41d39	-0.02589284
48	0x3e130957	0.14359032
49	0x3d86cc2a	0.0658191
50	0x3e2cd6c0	0.16878796
51	0x3d99d9d1	0.07512248
52	0xbd57dc25	-0.05270018
53	0x3d398818	0.045295805
54	0x3d8f568b	0.06998929
55	0x3dfb69ec	0.12276062
56	0x3db083cb	0.086188875
57	0xbc8e183c	-0.01734554
58	0xbdc3b1b2	-0.09555377
59	0x3d886550	0.06659949
60	0x3ced56b7	0.028972013
61	0x3d4a250f	0.049351748
62	0x3d2006e8	0.039069086
63	0x3d13ac76	0.036053143
64	0x3dadf7c3	0.084945224
65	0x3cefa179	0.0292518
66	0x3d8c2506	0.06842999
67	0xbc28200d	-0.010261548
68	0x3d66195c	0.05617653
69	0x3d7509b7	0.059823718
70	0xbdb510eb	-0.088411175
71	0x3e07adf9	0.13249959
72	0x3d867b10	0.06566441
73	0xbdb44347	-0.08801895
74	0xbd9b617c	-0.07586953
75	0xbd69b186	-0.057054065
76	0xba8873ca	-0.0010410484
77	0x3e5cb9e5	0.21555288
78	0x3d7f4d32	0.06232948
79	0x3d696195	0.056977827
80	0xbd0b176e	-0.03395789
81	0x3e1bc573	0.1521204
82	0x3d004333	0.031314086
83	0xbc28a499	-0.010293149
84	0xbd7d7fea	-0.061889566
85	0x3b415b27	0.0029503794
86	0x3daee0e5	0.08538989
87	0xbd8104f3	-0.06299772
88	0x3d4ef244	0.05052401
89	0x3df1a4c2	0.11799003
90	0x3e1147ac	0.14187497
91	0x3d2af8c0	0.041741133
92	0x3dbbe05c	0.091736525
93	0xbe3f936f	-0.18708585
94	0x3e18c2c2	0.14918044
95	0xbcb23ecb	-0.021758458
96	0x3dc44ac5	0.09584574
97	0x3c115bd5	0.008871992
98	0x3ce47e43	0.027892238
99	0x3dcea340	0.10089731
100	0x3da9b05e	0.082855925
101	0xbdbd8c71	-0.09255303
102	0xbc95aecf	-0.018271832
103	0xbd2e2a5f	-0.042520877
104	0xbcdfc616	-0.027316134
105	0x3db55986	0.08854966
106	0xbcd47dc3	-0.025938874
107	0x3dc0a81f	0.094070666
108	0x3bbe9ed1	0.0058172722
109	0x3cdf8dda	0.02728932
110	0x3deb433e	0.11487435
111	0xbd7acff3	-0.061233472
112	0xbbe0acd0	-0.0068565384
113	0x3d5c9c96	0.05386027
114	0xbdf30376	-0.118658945
115	0xbd7322f0	-0.05935949
116	0xbdb15110	-0.086580396
117	0x3d399d11	0.045315806
118	0xbe2723d6	-0.16322264
119	0xbccb2d80	-0.02480197
120	0x3e0c3a6d	0.13694163
121	0xbdabc86a	-0.08387835
122	0x3c68c5d7	0.014207325
123	0xbcc5a7df	-0.024127899
124	0xbc08b156	-0.008343061
125	0xbdcfc884	-0.10145667
126	0x3e0b4245	0.13599499
127	0x3dad5257	0.08462971
128	0xbcc17d9c	-0.023619466
129	0x3e3cf757	0.18453728
130	0xbc447e07	-0.011992938
131	0x3cc2d515	0.023783246
132	0xbd945830	-0.07243383
133	0x3d9a7146	0.075411364
134	0x3d9d84f7	0.07691377
135	0x3d1e3fa0	0.038634896
136	0x3dc26cdd	0.0949342
137	0x3ddcdfb3	0.10784855
138	0xbd87791d	-0.066148974
139	0xbd201fd4	-0.039092854
140	0x3d81806c	0.06323323
141	0xbc7ddf97	-0.0154952025
142	0xbe187e8d	-0.14892025
143	0x3c5554a3	0.013020667
144	0x3db55d4f	0.08855688
145	0x3d000c68	0.03126183
146	0xbdcacd05	-0.099023856
147	0x3d56a38f	0.052402075
148	0x3daffbc5	0.08592943
149	0xbdb69e1d	-0.089168765
150	0x3d95da3a	0.07317014
151	0xbde5ab21	-0.11214281
152	0x3c2c5415	0.010518094
153	0x3c7f718f	0.015591039
154	0xbd9dc2d6	-0.07703178
155	0xbcd2626b	-0.025681695
156	0x3b7d3ff4	0.0038642855
157	0x3daa051a	0.08301754
158	0xbdf53a2f	-0.11973988
159	0xbd6f75cc	-0.05846195
160	0x3d91dd9a	0.07122345
161	0xbdab7524	-0.08371952
162	0xbbd4c623	-0.0064933463
163	0x3de0d325	0.109777726
164	0xbd6ab5a4	-0.057302132
165	0x3cfe7ed6	0.03106634
166	0xbdca48aa	-0.09877141
167	0x3d7155ca	0.058919705
168	0x3c6a89c3	0.0143150715
169	0xbd14ccf8	-0.036328286
170	0xbd0b4074	-0.033997014
171	0xbd81220d	-0.06305323
172	0xbcf2f19e	-0.029656228
173	0xbda261c2	-0.07928802
174	0x3d170648	0.036871225
175	0x3dc2c4c1	0.09510184
176	0xbc9dea26	-0.01927669
177	0xbde8d789	-0.11369235
178	0xbdd7fe7e	-0.105465874
179	0xbc3ff549	-0.011716195
180	0xbd4b6728	-0.049658924
181	0x3daed911	0.08537496
182	0xb9f0f341	-0.00045957605
183	0x3b841b9d	0.004031612
184	0x3d9886bf	0.07447576
185	0xbcfe92d5	-0.031075874
186	0x3be0d93f	0.0068618353
187	0xbda4f60b	-0.080547415
188	0x3de4e5e2	0.11176659
189	0xbe15dad6	-0.1463426
190	0xbd128498	-0.035770983
191	0x3db71bb9	0.089408346
192	0xbc8a96ca	-0.016917605
193	0x3dd1c6ff	0.102430336
194	0xbdc8fce5	-0.09813861
195	0xbd465a05	-0.048425693
196	0x3d930795	0.071791805
197	0xbd3897a5	-0.045066494
198	0xbe19bda0	-0.15013742
199	0x3da45a2b	0.08025011
200	0x3e10a0fb	0.14123909
201	0x3da17215	0.078830875
202	0xbe0b208a	-0.13586631
203	0xbda69c40	-0.08135271
204	0x3dbef8d2	0.093248025
205	0x3cb3671d	0.021899754
206	0x3dc4d3a5	0.096106805
207	0xbd1d9f62	-0.038482077
208	0xbb3d723c	-0.00289072
209	0xbc1655af	-0.009175702
210	0x3cd9e84f	0.026600031
211	0xbd0c5491	-0.034260336
212	0x3e19073d	0.14944167
213	0xbcfe179e	-0.03101712
214	0xbe2505d8	-0.1611551
215	0xbc32e830	-0.010919616
216	0xbcbb48de	-0.022861894
217	0xbcbe224e	-0.023209717
218	0x3dbdfc14	0.09276596
219	0x3da59154	0.0808436
220	0x3c23092c	0.009950917
221	0x3dd8dc3f	0.105888836
222	0xbd212611	-0.039342944
223	0x3d92d995	0.07170407
224	0x3d0bc75c	0.03412567
225	0x3d0d822d	0.034547973
226	0x3d9e3db8	0.07726616
227	0x3c7442cd	0.014908505
228	0x3c8a8fe9	0.016914325
229	0x3cc53ac6	0.024075877
230	0xbd10e944	-0.03537871
231	0x3deacd7f	0.114649765
232	0xbd669e8b	-0.056303542
233	0x3c0fea0f	0.008783831
234	0x3dd69391	0.10477365
235	0x3e486bc8	0.19572365
236	0x3d47593c	0.048669085
237	0x3cf21415	0.029550591
238	0x3d800fe5	0.06253032
239	0xbd8afa68	-0.067860425
240	0xbcc1fac3	-0.023679143
241	0x3d11f9a6	0.035638474
242	0xbd7fdbd5	-0.062465508
243	0xbb6f6fe7	-0.0036535205
244	0x3dfb2a68	0.12263948
245	0x3e4043d7	0.18775879
246	0x3c0d7fa8	0.008636393
247	0xbdd7c3b5	-0.10535375
248	0xbd49eae8	-0.04929629
249	0x3e2719fa	0.16318503
250	0x3dc27f68	0.09496957
251	0x3e00f55e	0.125936
252	0x3d019316	0.031634413
253	0x3d01c12b	0.03167836
254	0x3da02a7e	0.07820605
255	0x3d81bb4a	0.06334551

_module.lstm_layer.l0.ih.bias f4 [400]
0	0xbcdb4fdc	-0.026771478
1	0xbd636c59	-0.05552325
2	0xbd431587	-0.047627952
3	0xbbfd2719	-0.007725608
4	0x3ca5ef84	0.020255812
5	0xbe31b300	-0.1735344
6	0x3b8e4482	0.004341663
7	0xbe831194	-0.2559935
8	0x3e88d6bf	0.26726338
9	0x3cc99937	0.024609191
10	0xbc1ce742	-0.0095766205
11	0x3bf8e447	0.007595572
12	0x3e28bf63	0.16479258
13	0xbe042549	-0.12904848
14	0x3c4a5106	0.012348419
15	0xbda0d2e4	-0.07852724
16	0xbd505d11	-0.050870005
17	0x3b0435e2	0.0020173718
18	0xbdc39b02	-0.0955105
19	0x3b365128	0.002781937
20	0xbc80860a	-0.015688915
21	0x3ddcdee6	0.10784702
22	0xbc7e4722	-0.015519889
23	0x3dc63c60	0.09679484
24	0xbc53cd0b	-0.012927304
25	0x3e266e04	0.16252905
26	0x3d3f220b	0.046663325
27	0xbd0a440a	-0.033756293
28	0x3dd4c86e	0.103897914
29	0xbd6feb3d	-0.05857395
30	0xbdc6881c	-0.096939296
31	0x3dbb0358	0.09131497
32	0xbb991632	-0.0046718353
33	0xbe0a7aa1	-0.13523342
34	0x3d38855d	0.04504906
35	0x3e1215c6	0.14266118
36	0x3dc006f2	0.09376325
37	0x3de4fe77	0.11181348
38	0x3dd09f22	0.10186602
39	0xbd950067	-0.07275467
40	0x3cf918ae	0.030407276
41	0x3e2196fd	0.15780254
42	0x3d9f2c7e	0.07772158
43	0x3db59815	0.08866898
44	0x3deee3b4	0.11664525
45	0xbcf29ddb	-0.029616287
46	0x3d87a160	0.06622577
47	0x3d90924d	0.07059155
48	0x3c5997f4	0.013280857
49	0xbd94c5a3	-0.07264259
50	0x3dd7a0aa	0.10528691
51	0xbbb0c9ba	-0.0053951414
52	0x3d410685	0.047125358
53	0x3e00d68f	0.12581848
54	0xbca23c79	-0.019804226
55	0x3e19640e	0.14979574
56	0x3d635a05	0.05550577
57	0xbdfbb246	-0.12289862
58	0xbc59a680	-0.013284326
59	0xbdf39732	-0.118940726
60	0x3e65178c	0.22372264
61	0x3e0c19ee	0.13681766
62	0x3e03b06c	0.12860268
63	0xbcce611c	-0.02519279
64	0x3d867ec1	0.06567145
65	0x3ca8f764	0.020625778
66	0x3bf7be65	0.0075605386
67	0x3c961369	0.018319802
68	0x3e85fc7d	0.26169196
69	0xbccb2ceb	-0.024801692
70	0x3c1dd5f3	0.009633529
71	0xbb808d87	-0.0039231214
72	0x3d77e980	0.060525417
73	0x3d5cbe3e	0.053892367
74	0x3d7a8f9c	0.061172113
75	0x3bd96a00	0.0066349506
76	0xbd95a052	-0.07305969
77	0x390edb9a	0.00013623983
78	0x3e6a790e	0.22897741
79	0xbda2fe0d	-0.079586126
80	0x3cbd74fb	0.02312707
81	0x3d3e42dd	0.046450485
82	0xbc49afa9	-0.012309947
83	0x3caed8bd	0.021343583
84	0x3d423ea1	0.04742301
85	0x3dd03453	0.1016623
86	0x3d4ea44f	0.050449666
87	0x3db75219	0.08951206
88	0xbc5d32f8	-0.013500921
89	0x3e004376	0.12525734
90	0x3d7dadbc	0.061933264
91	0x3cfb4f1a	0.030677367
92	0xbe366648	-0.17812455
93	0xbccf68d5	-0.025318542
94	0xbd0ed64c	-0.03487234
95	0x3e46dfa4	0.1942125
96	0xbd5f1176	-0.05446001
97	0x3e47ec82	0.19523814
98	0xbcf17721	-0.02947575
99	0xbd92a6af	-0.071606986
100	0x3d5a5251	0.05330116
101	0x3dfa7896	0.12230031
102	0x3d17f024	0.03709425
103	0xbd3c9fd4	-0.04605086
104	0xbd8d63ce	-0.06903802
105	0x3e2dcbdb	0.16972296
106	0xbdcd3125	-0.10019139
107	0xbdd43728	-0.10362083
108	0x3c4249f1	0.011858449
109	0x3b883a39	0.0041573313
110	0x3e22e10d	0.15906163
111	0xbce6687e	-0.028125998
112	0xbc2eca6b	-0.010668377
113	0x3dc5f544	0.09665921
114	0x3bebecc7	0.007199857
115	0x3d1cb48b	0.038258117
116	0x3d5eb489	0.05437139
117	0x3ddfa8e7	0.109208874
118	0xbc399176	-0.0113261845
119	0xbe0667e8	-0.13125575
120	0xbd249371	-0.040179674
121	0x3e2f0b94	0.1709426
122	0x3e0c2dec	0.13689393
123	0xbca59c43	-0.020216113
124	0xbdd60daa	-0.10451825
125	0x3d7efaa6	0.062250756
126	0xbe092340	-0.13392353
127	0x3ca926ec	0.020648442
128	0x3d73e48c	0.05954413
129	0xbd698e30	-0.057020366
130	0x3de4e7eb	0.11177047
131	0x3e47629d	0.19471212
132	0x3e4d23ab	0.20033138
133	0x3cbe18f6	0.023205262
134	0x3d81cac1	0.063375
135	0x3dd6db78	0.10491079
136	0xbdc9ecfc	-0.09859654
137	0x3d139781	0.036033157
138	0x3d509892	0.050926752
139	0x3b05cb80	0.0020415485
140	0xbde0f52f	-0.10984265
141	0x3d8634c2	0.065530315
142	0x3c1b6c43	0.009486261
143	0x3bef77d0	0.007307984
144	0xbb8d5fa0	-0.004314378
145	0xbb8f2e53	-0.004369536
146	0xbda38d58	-0.079859436
147	0x3d619adf	0.055079337
148	0x3d7f9141	0.062394384
149	0x3e28a446	0.16468915
150	0x3e032041	0.12805273
151	0xbd968246	-0.073490664
152	0xbd24c740	-0.040229082
153	0x3e413cb2	0.1887081
154	0x3d4f5c3c	0.05062507
155	0x3e4402f0	0.19141746
156	0x3e01a773	0.12661533
157	0x3e375192	0.1790221
158	0x3c6fe90f	0.014642968
159	0x3d5fa693	0.054602217
160	0x3dbe3ede	0.09289335
161	0x3cc41982	0.023937944
162	0xbd6ca337	-0.05777284
163	0xbd15e86f	-0.03659862
164	0x3e3b1b9e	0.18272254
165	0x3da04e1c	0.07827398
166	0x3db617f0	0.088912845
167	0x3c542ee8	0.012950636
168	0xbe11a3c6	-0.14222631
169	0x3ce35241	0.027749183
170	0x3d61b52d	0.055104423
171	0xbda06892	-0.07832445
172	0x3dcaef86	0.09908967
173	0xbd4424cd	-0.04788666
174	0x3d9ad7b8	0.07560676
175	0xbbde52c8	-0.0067847706
176	0x3e22602c	0.15856999
177	0x3d29f3ac	0.04149215
178	0x3e468adc	0.19388908
179	0xbe012160	-0.12610388
180	0x3e225348	0.15852082
181	0x3c5951ff	0.013264178
182	0x3d8a1468	0.067421734
183	0x3e158e73	0.14605121
184	0x3dca3d8e	0.09875022
185	0x3bd91809	0.0066251797
186	0x3dacfbc4	0.08446458
187	0x3e4e56cf	0.20150302
188	0x3d9ce2e2	0.07660462
189	0x3d13a59f	0.03604662
190	0xbb958cbd	-0.0045638965
191	0xbd5b8bc9	-0.053600106
192	0xbd89a82c	-0.06721529
193	0x3ce765d5	0.0282468
194	0x3e2bf672	0.1679323
195	0x3c7b0fa7	0.015323556
196	0x3d7645a7	0.06012502
197	0x3d92702a	0.071503
198	0x3ca3c291	0.019990237
199	0x3c8f9e40	0.017531514
200	0xbe225126	-0.15851268
201	0xbd1b4dd3	-0.037916016
202	0x3d310004	0.043212906
203	0x3df85172	0.121249095
204	0x3d7518d3	0.059838127
205	0xbe14295a	-0.144689
206	0x3d976f75	0.073943056
207	0xbd3659d9	-0.04451928
208	0xbe021e4b	-0.12706868
209	0x3e0611e1	0.13092758
210	0xbd295ce7	-0.041348364
211	0xbd60230f	-0.054720934
212	0xbce684b9	-0.028139459
213	0xbc9f7224	-0.019463606
214	0xbe4d9140	-0.2007494
215	0xbd279a39	-0.040918563
216	0x3db72445	0.08942465
217	0xbd39c08b	-0.04534964
218	0x3d77e8cd	0.06052475
219	0xbd959ca6	-0.07305269
220	0x3e0beaa1	0.13663723
221	0xbe6bdc1e	-0.23033187
222	0x3d07663a	0.033056475
223	0x3da31ac9	0.07964093
224	0x3c0fffef	0.008789047
225	0xbcf3b5cc	-0.029749773
226	0x3d9fe2d8	0.07806939
227	0x3c0b9c1d	0.008521107
228	0xbdc29347	-0.09500747
229	0xbd8b8faf	-0.06814515
230	0x3dd291bf	0.10281705
231	0x3d806485	0.062691726
232	0xbe877020	-0.26452732
233	0xbe8b82dd	-0.27248278
234	0xbd3d4e74	-0.046217397
235	0xbe467d6a	-0.19383779
236	0xbea5338e	-0.32265896
237	0x3ea8dafd	0.32979575
238	0x3e848832	0.2588516
239	0x3d2e098b	0.04248957
240	0xbddbca75	-0.10731975
241	0xbcab4b4d	-0.02090993
242	0x3e127009	0.1430055
243	0xbd9405e5	-0.07227687
244	0xbcfeba14	-0.031094588
245	0xbc8fcbad	-0.017553175
246	0xbd47576f	-0.048667368
247	0xbdad922a	-0.08475144
248	0x3dc12c56	0.094322845
249	0xbdb9fddb	-0.09081622
250	0x3c2d1a8d	0.010565412
251	0x3db241ab	0.087039314
252	0x3d68355f	0.056691524
253	0x3cf8644f	0.030321268
254	0xbe2fd1e2	-0.17169908
255	0xbdb13f1e	-0.08654617
